Project-E_game/Assets/characters/Npc/Npc 1.onnx (onnx, 313235 bytes, 6 tensors)

network_body._body_endoder.seq_layers.0.weight f4 [256, 34]
-0.07855636 0.055470183 0.54166716 0.09491393 -0.13868055 0.5827094 0.19663699 0.050196063
0.15124887 -0.0060352 0.2112201 0.15900312 -0.27554807 0.084845245 -0.20267983 0.11623502
-0.10537404 0.027469652 0.07397007 0.11184316 0.22774951 -0.37462655 -0.30486432 0.1005551
0.07808269 -0.07899426 0.15239671 -0.060184278 0.06692309 -0.262532 0.26095423 0.027195957
-0.06922826 0.011240268 0.28001586 0.033160888 -0.03490348 0.051411945 0.08540411 -0.14977318
0.09149646 0.15512353 -0.049773436 -0.018392498 0.076458596 -0.06705171 0.03944552 -0.14927639
-0.10279497 0.03371055 0.22977488 -0.03413786 0.1586439 0.059938397 -0.08854343 -0.027568301
-0.016418232 -0.05536736 -0.06301196 0.24813719 0.31327033 -0.0133764325 -0.050296456 -0.04184232
-0.12208859 -0.48015228 0.30144572 -0.30353662 -0.15566304 0.09616257 0.058260057 0.12792653
0.11104542 0.011475542 0.024794206 0.27831647 -0.26369748 0.022891875 -0.05246609 0.171898
-0.20131192 -0.34333485 -0.048740886 -0.37118742 -0.3083112 0.06877441 -0.0099586435 -0.15932746
-0.33955988 0.21331297 0.24777447 -0.2345289 0.6423477 0.2975308 0.08550095 0.14938097
0.029705696 0.29071674 0.19742689 -0.08762727 -0.1440306 0.22189933 0.08746259 0.36706433
0.11919686 0.16612929 -0.044437636 0.17196633 -0.14469309 -0.2842842 0.42039073 -0.04553144
0.33273578 -0.06194128 6.324307e-05 -0.007306061 0.0050029512 0.17487444 0.12399113 0.1276449
-0.17460789 -0.06120756 0.27072442 -0.06446412 -0.013414737 0.2268806 -0.058812227 -0.03597852
-0.10184788 -0.14319654 -0.12461049 0.086110845 -0.12973645 0.16272597 0.08186691 0.008659709
-0.14815842 -0.25283968 -0.1225975 0.11731505 0.04511759 0.096528105 -0.047179315 0.3056548
0.0042643836 -0.31710047 -0.3259778 -0.11284899 0.4193098 -0.18430471 0.17085843 0.21173954
-0.19389771 0.20120233 -0.081458464 0.021553492 0.021811789 0.19838719 0.050309993 -0.18803571
0.15907577 0.1554176 -0.13839476 0.08521913 -0.010620469 -0.3486228 -0.0744871 -0.058039635
0.10638832 0.3211106 0.13351567 0.04366298 -0.1329456 0.14869565 0.19767581 -0.041209716
-0.02336943 -0.24423003 0.18691935 0.18188238 -0.21953891 0.011884939 0.22719036 0.29176936
0.23773499 0.020082388 -0.061153177 -0.23038395 0.054890748 -0.19120613 0.07427665 -0.3568857
0.04679426 -0.15704557 0.5130442 0.21315506 -0.028332133 -0.060415313 0.011909473 -0.05061657
-0.07800905 -0.05020418 -0.25296944 0.12731288 -0.22329356 0.058687676 -0.1511455 0.095328726
0.11616609 0.16989766 0.083588496 -0.06403832 -0.01674418 -0.0033985467 0.29306856 0.25461188
-0.18248153 0.2263823 -0.11975143 0.32461464 0.010990266 0.070344016 0.10681163 -0.001456311
-0.012076228 0.10913778 0.24610941 0.27526915 -0.23075458 0.5432939 -0.32060486 -0.2606735
-0.1706521 0.04388615 0.06850662 0.14821546 -0.5748217 -0.011812248 -0.060557608 0.294674
0.19215503 0.14779155 -0.045890793 0.07818001 0.07320375 0.18980797 0.49696073 0.24480172
-0.20862499 -0.21725228 -0.047981218 -0.11320055 0.12356135 -0.12737916 -0.028465053 -0.24702701
00000000: 28e2 a0bd b434 633d b3aa 0a3f 3c62 c23d
00000010: 4602 0ebe 712c 153f 355b 493e 639a 4d3d
00000020: fce0 1a3e edc2 c5bb 154a 583e b7d1 223e
00000030: a314 8dbe 58c3 ad3d 4d8b 4fbe a00c ee3d
00000040: 58ce d7bd 0908 e13c 9f7d 973d 070e e53d
00000050: 2b37 693e 0dcf bfbe 2d17 9cbe d5ef cd3d
00000060: d1e9 9f3d bec7 a1bd e20d 1c3e ca83 76bd
00000070: f90e 893d 986a 86be cb9b 853e 0eca de3c
00000080: 8cc7 8dbd 1a29 383c 3d5e 8f3e b6d3 073d
00000090: f4f6 0ebd 5595 523d 5ae8 ae3d 245e 19be
000000a0: 7f62 bb3d b4d8 1e3e 3bdf 4bbd ddab 96bc
000000b0: 5396 9c3d 6852 89bd a091 213d e9db 18be
000000c0: 2b86 d2bd 1314 0a3d 1b4a 6b3e 24d4 0bbd
000000d0: 8c73 223e f781 753d 4256 b5bd ebd6 e1bc
000000e0: 877f 86bc e3c8 62bd 6a0c 81bd ad17 7e3e
000000f0: f864 a03e d328 5bbc a803 4ebd da62 2bbd
00000100: 9509 fabd 85d6 f5be 1857 9a3e 2769 9bbe
00000110: 2266 1fbe e2f0 c43d 19a2 6e3d 2cff 023e
00000120: c86b e33d e903 3c3c 381d cb3c 7f7f 8e3e
00000130: 5b03 87be be87 bb3c afe6 56bd 0806 303e
00000140: b624 4ebe 96c9 afbe 86a4 47bd 470c bebe
00000150: f7da 9dbe 99d9 8c3d 9429 23bc bd26 23be
00000160: cbda adbe b76e 5a3e 97b8 7d3e 5828 70be
00000170: e670 243f f555 983e 1f1b af3d 53f7 183e
00000180: 5c59 f33c d3d8 943e 462a 4a3e ed75 b3bd
00000190: c27c 13be 9439 633e 961f b33d dbef bb3e
000001a0: 7c1d f43d cc1d 2a3e 3d04 36bd f117 303e
000001b0: 6d2a 14be b38d 91be 743d d73e 2d7f 3abd
000001c0: 585c aa3e 24b6 7dbd 5da1 8438 af67 efbb
000001d0: ccef a33b 4912 333e 10ef fd3d 58b5 023e
000001e0: 69cc 32be c7b4 7abd 649c 8a3e c405 84bd
000001f0: 7cc9 5bbc 6353 683e 17e5 70bd 365e 13bd
00000200: 9f95 d0bd 1da2 12be c933 ffbd e25a b03d
00000210: a2d9 04be a3a1 263e d7a9 a73d 74e1 0d3c
00000220: d7b6 17be 3474 81be 6614 fbbd df42 f03d
00000230: 39cd 383d 87b0 c53d 193f 41bd c97e 9c3e
00000240: 3ebc 8b3b fe5a a2be 90e6 a6be 5f1d e7bd
00000250: c6af d63e 60ba 3cbe 83f5 2e3e 40d2 583e
00000260: 1f8d 46be fc07 4e3e b2d3 a6bd f390 b03c
00000270: a3ae b23c 0326 4b3e da11 4e3d 6f8c 40be
00000280: c2e4 223e cb25 1f3e 5bb7 0dbe 5e87 ae3d
00000290: 7a01 2ebc b07e b2be b18c 98bd f8ba 6dbd
000002a0: 1fe2 d93d 9c68 a43e 55b8 083e f4d7 323d
000002b0: e422 08be ac43 183e 876b 4a3e 85cb 28bd
000002c0: 3f71 bfbc 7017 7abe c967 3f3e 603f 3a3e
000002d0: cfce 60be 0cb9 423c 97a4 683e cb62 953e
000002e0: cd70 733e d283 a43c c17b 7abd c5e9 6bbe
000002f0: 1fd5 603d 8acb 43be 5b1e 983d b9b9 b6be
00000300: 57ab 3f3d 8ed0 20be dd56 033f 5245 5a3e
00000310: ca18 e8bc 0c76 77bd f31f 433c 5253 4fbd
00000320: 35c3 9fbd e6a2 4dbd 3685 81be 4f5e 023e
00000330: 11a7 64be 7d62 703d e3c5 1abe b53b c33d
00000340: 7de8 ed3d a7f9 2d3e 7230 ab3d 8626 83bd
00000350: 172b 89bc 27ba 5ebb 150d 963e 7d5c 823e
00000360: 70dc 3abe c3d0 673e 3d40 f5bd e433 a63e
00000370: 8410 343c 8610 903d 0ec0 da3d b0e1 beba
00000380: 5fdb 45bc a183 df3d 1b04 7c3e 14f0 8c3e
00000390: ee4a 6cbe 4f15 0b3f 5226 a4be ff76 85be
000003a0: 6dbf 2ebe f7c1 333d 334d 8c3d cbc5 173e
000003b0: 8427 13bf 2988 41bc 410b 78bd 83df 963e
000003c0: 4ac4 443e ab56 173e fcf7 3bbd d71c a03d
000003d0: d9eb 953d 055d 423e a371 fe3e 4dad 7a3e
000003e0: caa1 55be 6277 5ebe f487 44bd b1d5 e7bd
000003f0: bc0d fd3d af6f 02be 8b2f e9bc a6f4 7cbe

network_body._body_endoder.seq_layers.0.bias f4 [256]
-0.00529687 -0.002460326 0.027759528 -0.056362342 0.011097368 0.09715993 -0.044248015 0.0048932056
-0.0487436 -0.021105587 0.07726504 -0.012638441 -0.011208529 -0.025709236 0.00046072426 0.16324168
-0.052247424 -0.062117897 -0.0661803 0.027216552 0.020894222 0.020602647 -0.06735607 -0.023353558
-0.03808984 -0.0542421 0.018757708 -0.018180167 -0.025780177 -0.112720646 0.02313793 -0.08190516
0.07449281 -0.031157775 0.025128966 -0.0024286748 0.048755392 0.008307601 -0.01737962 0.047030475
-0.08825408 -0.00040718692 -0.011813885 -0.05556082 0.027721751 -0.048611846 0.088765755 0.008710084
-0.0022920633 0.12205382 0.11071055 0.03284548 -0.0069907433 -0.03657866 -0.10055111 -0.1428311
-0.11507009 -0.06276574 -0.02584368 -0.028955944 0.036737584 0.012766257 0.05866372 0.017631356
0.039845362 0.008186376 0.12899725 -0.032830276 -0.0049304357 -0.0898827 -0.05798205 -0.06629575
0.0216848 0.028102728 -0.049697224 -0.0148473615 0.16442282 0.041959595 -0.07390058 -0.05092908
-0.10231127 -0.048448287 0.10340895 0.055338386 -0.011392868 -0.036248665 -0.10690793 -0.081419915
-0.05149734 -0.076552756 0.055949055 0.081355914 0.09108795 -0.0012045531 -0.066535495 -0.04326519
0.058977406 0.0036275527 0.0650179 0.00040762208 0.06370573 -0.008897148 0.08228739 0.14568566
-0.0386884 -0.06563132 -0.014916136 0.006540649 0.033352945 0.02305403 -0.055611808 0.13729157
0.05327824 -0.04726238 -0.02609601 -0.013263719 0.1114227 0.05268377 -0.10540955 0.005375414
-0.047257293 0.05831826 -0.006086075 -0.05354022 -0.09052748 -0.093474425 -0.028124927 -0.015104701
0.058742892 0.013336603 -0.048666067 0.041441657 -0.03871503 0.10906391 -0.013275059 0.10561344
0.019510277 -0.015666895 -0.02901738 0.020279877 -0.07901967 0.064422585 0.016599007 -0.005365451
0.06510538 0.0672638 -0.007778013 0.011935565 0.11394016 0.030284707 -0.031741258 -0.055833712
0.02887112 -0.05748113 -0.05643944 -0.03371544 -0.015348604 0.034486108 0.05117565 0.023662511
0.13413094 0.008185426 -0.06570429 0.07618965 0.07736478 0.11102503 -0.011411538 0.0022578028
-0.037533224 0.11644564 -0.07248618 0.036847353 -0.05927944 -0.058410812 -0.09639475 0.017989302
0.047637157 -0.059634976 -0.0647993 0.061251625 -0.10007724 0.081399016 0.0089793205 0.0019457527
0.13481873 -0.041343533 -0.043975685 0.033897422 0.0022827287 -0.04468093 0.034620773 -0.032476284
0.043756943 -0.02628388 0.06376477 -0.0029336598 0.021587953 -0.10652454 0.0009965255 0.019040365
-0.03343069 0.01322552 -0.06565216 -0.008956911 0.11354245 -0.013292264 0.103973694 -0.0017634501
-0.0057295104 -0.05718125 -0.09637291 0.050027587 -0.046084646 0.090201885 -0.037355077 0.096039504
0.07377554 0.15124431 0.04948521 0.07686566 -0.080103956 0.10318665 -0.022539739 0.1100738
-0.11173788 -0.013209144 0.020388346 -0.029733121 -0.00859157 0.051250007 -0.03150881 0.03751333
-0.03325769 -0.029625868 -0.0036121733 -0.036728356 0.06121919 0.023412334 -0.047115747 -0.003073783
0.05325162 -0.04070122 0.09154662 -0.08177958 0.09187575 0.19244562 0.11211386 -0.0076853274
-0.027220976 -0.082781345 0.021713728 -0.01321139 -0.050917264 0.07199388 0.157646 0.11098777
00000000: 5e91 adbb 6c3d 21bb f367 e33c 33dc 66bd
00000010: bcd1 353c c9fb c63d 683d 35bd 2f57 a03b
00000020: 5ea7 47bd a0e5 acbc 223d 9e3d 7711 4fbc
00000030: faa3 37bc 2d9c d2bc 5d8d f139 d428 273e
00000040: 6501 56bd 566f 7ebd 8a89 87bd 3ff5 de3c
00000050: 5c2a ab3c e2c6 a83c fbf1 89bd f64f bfbc
00000060: 1804 1cbd f72c 5ebd c4a9 993c 93ee 94bc
00000070: f330 d3bc 15da e6bd c28b bd3c e4bd a7bd
00000080: b08f 983d 973e ffbc 43db cd3c 672a 1fbb
00000090: bcb3 473d 9b1c 083c b45f 8ebc 07a3 403d
000000a0: 8ebe b4bd b47b d5b9 068f 41bc be93 63bd
000000b0: ba18 e33c 371d 47bd d2ca b53d bdb4 0e3c
000000c0: 7136 16bb 5af7 f93d 36bc e23d fb88 063d
000000d0: 9b12 e5bb 81d3 15bd beed cdbd 5142 12be
000000e0: dea9 ebbd 538b 80bd 20b6 d3bc 0435 edbc
000000f0: 267a 163d 9029 513c 5e49 703d a26f 903c
00000100: e434 233d 2620 063c db17 043e 0a79 06bd
00000110: 7e8f a1bb 6c14 b8bd 967e 6dbd 11c6 87bd
00000120: 52a4 b13c b137 e63c 518f 4bbd 5942 73bc
00000130: 755e 283e d3dd 2b3d 3059 97bd 039b 50bd
00000140: 9288 d1bd b671 46bd 12c8 d33d 81aa 623d
00000150: 27a9 3abc 7b79 14bd 8bf2 dabd 7cbf a6bd
00000160: e0ee 52bd b1c7 9cbd d62a 653d ee9d a63d
00000170: 528c ba3d 18e2 9dba c343 88bd d736 31bd
00000180: 4b92 713d 3cbc 6d3b 1b28 853d 1cb6 d539
00000190: 2678 823d 58c5 11bc 4b86 a83d 9f2e 153e
000001a0: ba77 1ebd b769 86bd cf62 74bc f152 d63b
000001b0: 199d 083d cedb bc3c 35c9 63bd 2996 0c3e
000001c0: 493a 5a3d 3396 41bd 4dc7 d5bc 1250 59bc
000001d0: 9631 e43d f0ca 573d f6e0 d7bd 3e24 b03b
000001e0: dd90 41bd 21df 6e3d b36d c7bb fd4c 5bbd
000001f0: 7966 b9bd 856f bfbd 3f66 e6bc b579 77bc
00000200: 639c 703d c481 5a3c 1256 47bd babe 293d
00000210: a793 1ebd e65c df3d a27f 59bc dc4b d83d
00000220: 04d4 9f3c dc57 80bc dbb5 edbc fc21 a63c
00000230: 11d5 a1bd fdef 833d a4fa 873c aad0 afbb
00000240: f855 853d 9ac1 893d b4de febb 638d 433c
00000250: 7559 e93d a217 f83c 1f03 02bd e4b1 64bd
00000260: 2183 ec3c 5571 6bbd 0b2d 67bd 3419 0abd
00000270: b678 7bbc 4e41 0d3d 8f9d 513d e2d7 c13c
00000280: 9f59 093e 2a1c 063c f98f 86bd 5209 9c3d
00000290: 6d71 9e3d 1761 e33d 76f7 3abc a5f7 133b
000002a0: 70bc 19bd 0d7b ee3d a273 94bd 40ed 163d
000002b0: 00cf 72bd 2d40 6fbd 9c6a c5bd 4d5e 933c
000002c0: 2e1f 433d ce43 74bd 7fb5 84bd fce2 7a3d
000002d0: 4cf5 ccbd 87b4 a63d 001e 133c a008 ff3a
000002e0: ec0d 0a3e d657 29bd d91f 34bd 06d8 0a3d
000002f0: d599 153b 5a03 37bd 83ce 0d3d da05 05bd
00000300: 7b3a 333d 4b51 d7bc 1b97 823d a542 40bb
00000310: 38d9 b03c 8a29 dabd d99d 823a 8afa 9b3c
00000320: 9fee 08bd daaf 583c a474 86bd 02c0 12bc
00000330: f288 e83d ccc7 59bc 29f0 d43d 9123 e7ba
00000340: 9ebe bbbb e336 6abd 295f c5bd bae9 4c3d
00000350: 41c3 3cbd c4bb b83d a301 19bd 5cb0 c43d
00000360: a117 973d cadf 1a3e 01b1 4a3d be6b 9d3d
00000370: 8b0d a4bd 8653 d33d 42a5 b8bc 5f6e e13d
00000380: d4d6 e4bd 2a6b 58bc 7605 a73c e092 f3bc
00000390: a8c3 0cbc 87eb 513d 620f 01bd 94a7 193d
000003a0: 3739 08bd f3b1 f2bc 36ba 6cbb 7970 16bd
000003b0: f9c0 7a3d 39cb bf3c 71fc 40bd 8571 49bb
000003c0: 5f1e 5a3d 53b6 26bd cb7c bb3d 0d7c a7bd
000003d0: 5a29 bc3d 7710 453e f49b e53d 33d5 fbbb
000003e0: 86fe debc 4489 a9bd fde0 b13c 9674 58bc
000003f0: 9f8e 50bd 8771 933d f46d 213e 8e4d e33d

network_body._body_endoder.seq_layers.2.weight f4 [256, 256]
-0.09174573 -0.12783551 0.0011533841 0.06950624 -0.037920207 0.034604926 -0.05688793 -0.15783362
-0.082682304 -0.0114230625 0.037688214 0.11631365 -0.08610941 -0.011673289 0.11334281 0.0017787626
-0.10729101 -0.04480592 0.066919185 -0.124849565 -0.07394165 0.016464435 -0.07874561 0.04132976
0.016138863 -0.06403746 0.036918763 -0.031150628 -0.013127437 -0.16787441 0.06232811 -0.070073195
-0.07799416 0.07699624 0.08244732 0.034060676 -0.013543025 0.05225422 -0.04975353 -0.019244473
0.040144455 0.083687976 -0.07371792 -0.10801707 0.086665906 -0.037061803 0.040832397 -0.038226184
0.06405071 0.14024651 0.06486563 -0.037725966 0.011935607 -0.02017231 -0.043251272 -0.06663947
-0.033758312 -0.015216671 0.021199694 -0.06708769 -0.0665331 0.15139012 0.116698116 -0.13946687
0.027768841 -0.012924222 -0.27311248 -0.041419715 -0.056579877 -0.05639764 -0.11153489 -0.021274503
-0.06712824 -0.056042578 0.030141562 0.020534392 -0.008280857 -0.019429553 0.06742641 -0.066032365
-0.09343437 -0.0026862149 -0.010555747 -0.040604327 -0.15595996 0.019042458 0.003915051 -0.03588037
-0.048234545 -0.12981991 0.006046162 -0.08173841 0.023984116 -0.09440252 0.034711692 -0.047876008
0.025785673 -0.013040952 0.011646702 -0.08017203 -0.020393478 -0.054965872 -0.18972905 -0.013177601
0.11407808 0.04249853 0.062303055 -0.0069551636 -0.0522504 0.021932842 -0.105533995 0.1376481
0.060238328 -0.15118131 0.11341032 -0.06915089 0.048996307 0.011845268 -0.048216693 0.06858807
-0.0054370663 -0.06617899 -0.20713857 -0.11768605 -0.13549067 0.04436314 0.0069969036 -0.0022084313
-0.04991262 -0.033033535 -0.07354928 0.07704712 -0.03381658 -0.004238972 0.0017919034 0.08884634
-0.11536464 -0.12506914 -0.028812962 -0.13396311 0.01430428 0.021581987 0.049903918 0.019133376
-0.018612647 -0.0034822721 -0.015295068 -0.09360359 0.013406778 0.026008543 -0.055301744 -0.07572949
2.5455893e-05 -0.11550315 0.007626792 0.06625995 0.028229335 -0.084412105 0.015967004 -0.13231635
0.017833417 -0.08034559 -0.034890514 0.03541688 0.036032304 0.043876052 -0.09160873 0.016631886
-0.06789246 0.06111349 -0.14213157 0.03949933 0.09911245 -0.035550073 -0.03311027 0.0040119397
0.12914021 -0.09851726 -0.026764167 0.0017716681 -0.011084224 0.027382668 -0.023822393 0.07086242
0.0776183 -0.054070085 0.027473072 -0.113463834 -0.029344684 0.045244187 -0.020698773 -0.11663004
-0.01709738 -0.099107 -0.08312866 0.0031414481 0.077436015 -0.04675754 -0.012935999 0.08134878
0.02009844 -0.06905068 -0.039207976 -0.11642512 -0.030753236 -0.04729021 0.0010164261 0.0029020815
0.0069579524 -0.032621905 -0.13982978 -0.06353244 -0.07971801 -0.08676748 0.14121717 0.025024015
0.027571734 -0.031978816 -0.14870118 0.03349382 0.013231113 -0.07591954 0.05866192 -0.06709384
0.021153808 -0.004839067 0.105584994 -0.047434475 -0.10976091 0.022632588 -0.06628093 -0.04754044
0.042808518 -0.08430669 -0.045881033 0.026064951 0.0011353884 0.00010958508 0.06871785 -0.068353586
-0.079445556 0.037053093 -0.03951562 -0.04515698 -0.050068047 -0.09781251 0.106896594 -0.082316786
-0.096603215 -0.036533244 0.05506564 -0.04683103 0.031063445 0.060405124 -0.011566862 0.016064832
00000000: 2fe5 bbbd 50e7 02be 262d 973a 4a59 8e3d
00000010: 3852 1bbd e5bd 0d3d 5103 69bd 239f 21be
00000020: 5755 a9bd cc27 3bbc f55e 1a3d da35 ee3d
00000030: 215a b0bd 5341 3fbc 4620 e83d 5e25 e93a
00000040: 64bb dbbd 6a86 37bd ed0c 893d 21b1 ffbd
00000050: b86e 97bd 6ce0 863c 6145 a1bd 6549 293d
00000060: a635 843c 1226 83bd 2138 173d 9a2f ffbc
00000070: 7614 57bc 45e7 2bbe c34b 7f3d 8982 8fbd
00000080: 67bb 9fbd 34b0 9d3d 24da a83d 3583 0b3d
00000090: 90e3 5dbc 8508 563d 5cca 4bbd 96a6 9dbc
000000a0: 836e 243d 9a64 ab3d 6cf9 96bd 0e38 ddbd
000000b0: e57d b13d 1ece 17bd df3f 273d 0f93 1cbd
000000c0: 052d 833d c89c 0f3e 45d8 843d 8b86 1abd
000000d0: 908d 433c 6640 a5bc 3f28 31bd 467a 88bd
000000e0: 2846 0abd 584f 79bc fbaa ad3c 4565 89bd
000000f0: 8242 88bd 0306 1b3e 6cff ee3d 67d0 0ebe
00000100: 7b7b e33c 1ec0 53bc 66d5 8bbe b8a7 29bd
00000110: 4dc0 67bd 3601 67bd 686c e4bd de47 aebc
00000120: 887a 89bd e78c 65bd 70eb f63c be37 a83c
00000130: 6eac 07bc ba2a 9fbc dc16 8a3d fa3b 87bd
00000140: 855a bfbd 350b 30bb 03f2 2cbc b950 26bd
00000150: f8b3 1fbe eefe 9b3c d449 803b 4bf7 12bd
00000160: 9691 45bd 83ef 04be e21e c63b 7866 a7bd
00000170: 567a c43c 1c56 c1bd d92d 0e3d a219 44bd
00000180: 7a3c d33c b8a9 55bc cfd1 3e3c 3c31 a4bd
00000190: 3910 a7bc e523 61bd 5548 42be dde6 57bc
000001a0: c5a1 e93d f012 2e3d 7d31 7f3d 24e8 e3bb
000001b0: 8404 56bd 81ac b33c 3522 d8bd a0f3 0c3e
000001c0: 77bc 763d 46cf 1abe ab43 e83d fb9e 8dbd
000001d0: 5ab0 483d a812 423c de7e 45bd e777 8c3d
000001e0: 6b29 b2bb da88 87bd 221c 54be 6205 f1bd
000001f0: 11be 0abe 20b6 353d 4846 e53b 54bb 10bb
00000200: 2d71 4cbd 2c4e 07bd 01a1 96bd e1ca 9d3d
00000210: 4183 0abd 13e7 8abb 4dde ea3a 12f5 b53d
00000220: 4c44 ecbd 2012 00be 2909 ecbc a02d 09be
00000230: 805c 6a3c b5cc b03c 0d68 4c3d 99bd 9c3c
00000240: 8d79 98bc d536 64bb 2a98 7abc 3db3 bfbd
00000250: 1aa8 5b3c de0f d53c 1584 62bd 1018 9bbd
00000260: 1d8a d537 ea8c ecbd 2bea f93b 4cb3 873d
00000270: 3541 e73c 41e0 acbd 3ccd 823c f07d 07be
00000280: 6317 923c 3b8c a4bd 5be9 0ebd 4a11 113d
00000290: 9c96 133d 60b7 333d 5c9d bbbd 983f 883c
000002a0: 340b 8bbd 2452 7a3d f08a 11be 0dca 213d
000002b0: 78fb ca3d f49c 11bd a29e 07bd 9776 833b
000002c0: 553d 043e 6bc3 c9bd 8740 dbbc 5137 e83a
000002d0: 9b9a 35bc 9e51 e03c 2e27 c3bc 5120 913d
000002e0: 58f6 9e3d 9878 5dbd 350f e13c ba5f e8bd
000002f0: 4364 f0bc f851 393d 7990 a9bc bbdb eebd
00000300: ce0f 8cbc 9cf8 cabd 5c3f aabd c1e0 4d3b
00000310: c696 9e3d d684 3fbd 83f1 53bc 309a a63d
00000320: 7ca5 a43c 716a 8dbd 8b98 20bd 4b70 eebd
00000330: 36ee fbbc 61b3 41bd 9a39 853a d930 3e3b
00000340: 89ff e33b 8c9e 05bd 8a2f 0fbe 4c1d 82bd
00000350: 3243 a3bd 26b3 b1bd 3c9b 103e 2aff cc3c
00000360: 1ede e13c 38fc 02bd 1f45 18be d130 093d
00000370: 4fc7 583c b47b 9bbd 7b47 703d 7f68 89bd
00000380: c04a ad3c 0991 9ebb f23c d83d a74a 42bd
00000390: 54ca e0bd fa67 b93c 4cbe 87bd c4b9 42bd
000003a0: fc57 2f3d fca8 acbd c0ed 3bbd 2a86 d53c
000003b0: 50d1 943a 0bd1 e538 f2bb 8c3d f7fc 8bbd
000003c0: 5ab4 a2bd fcc4 173d 21db 21bd 87f6 38bd
000003d0: 2714 4dbd ed51 c8bd 9aec da3d b495 a8bd
000003e0: e8d7 c5bd e2a3 15bd 828c 613d e5d1 3fbd
000003f0: c478 fe3c 5d6b 773d f082 3dbc 659a 833c

network_body._body_endoder.seq_layers.2.bias f4 [256]
-0.024102913 -0.0072858874 0.009383108 0.045235626 -0.010533142 -0.019423926 0.018403454 -0.039742623
0.013609447 0.045805223 -0.012075046 0.061562534 -0.04467471 -0.02018418 0.05604067 0.029198227
0.05417394 -0.025974814 0.005739342 -0.066219725 0.040642697 0.05483022 0.049082097 -0.05551438
-0.02443982 0.06427104 -0.033391576 -0.043340437 -0.022332203 0.003153796 0.03785939 -0.0069746217
0.024655623 0.04971282 0.05788784 0.00482713 0.045167524 0.03926756 0.0750316 0.03712278
-0.0067609195 0.005710089 0.07004168 0.021057507 0.042217642 -0.030204102 0.004099167 0.037397042
0.043910243 -0.031895056 -0.003755225 0.0123732025 -0.021810813 0.014441638 -0.07348915 0.044338387
0.052708056 -0.02208132 0.041456606 0.03534073 -0.007892301 0.05162513 -0.0024597081 0.004417728
-0.028546004 0.043201305 -0.052293453 -0.060811482 -0.017597945 -0.023445657 -0.02045687 -0.023510344
0.0281951 -0.026355945 0.04214958 -0.03655238 0.009063719 0.03722214 -0.013677317 0.04207015
0.03453241 0.0020040162 0.035543915 0.0004649388 -0.026827883 0.0567333 -0.012257835 -0.042368546
-0.012047992 -0.05750273 0.034324598 0.013682434 -0.011051616 -0.017581359 0.0060668793 0.04480817
0.03162198 -0.034401238 0.005943648 -0.008926317 0.07968033 0.047978375 -0.043036852 0.022603527
0.027196718 -0.037802707 -0.028291782 -0.063324034 -0.030414784 -0.015914833 -0.04940313 -0.023645096
0.052276347 0.03010862 -0.026630843 -0.07160098 -0.003962038 -0.027048087 0.020418186 0.016244827
-0.01166784 0.008053056 -0.031286802 0.007671872 0.0037392343 -0.021950977 0.03258406 -0.052360106
0.09005709 0.013825821 0.05464333 -0.0397506 0.04149896 -0.019842727 0.021295 0.011763815
0.019139543 -0.060421973 0.028993268 0.021426886 0.018453596 -0.0060767946 -0.009154842 -0.01786201
0.007474657 0.056220416 0.007391712 -0.030238545 0.04705142 0.06727024 0.052358404 0.017119426
0.02553263 -0.0208231 0.009634102 -0.025358753 -0.026156103 -0.026156861 0.015482708 0.003924536
-0.019393004 0.021592785 0.051528852 0.063347965 -0.04883691 -0.0016553091 0.038966652 0.016776616
0.05962691 0.06602504 -0.023737181 0.048912182 -0.01994317 0.008347556 -0.02463091 0.07649893
-0.0070506292 -9.0166446e-05 -0.054653827 -0.016740443 0.014583307 0.018228177 -0.010610875 0.007830474
-0.01458937 0.029939307 0.038033288 0.00847051 0.027053876 0.004343782 0.041253723 -0.043400638
0.029358154 0.05363454 -0.06696211 0.048115876 0.059168495 0.07156701 0.00091211207 -0.042248625
0.05985308 -0.00072144327 -0.01647528 0.05513176 0.0045519583 0.007815859 -0.031807013 -0.010997038
-0.031540357 0.04328339 0.048983753 0.02339439 0.05764255 -0.0070623606 -0.03932036 -0.032300834
-0.0050466773 -0.0021546169 -0.013393251 0.00010838046 -0.023045484 -0.018946368 0.055729937 0.03587999
-0.020811122 -0.0014565454 0.046126958 0.036415134 -0.03383214 -0.04628588 0.04100575 0.00945147
-0.0030409307 -0.03017016 -0.021886535 0.011363849 0.028376864 0.008190895 0.08623452 0.021129597
0.03585668 -0.004150543 0.0594725 -0.010687964 0.031211646 0.039247252 0.018565001 -0.01635709
0.00095573114 -0.03467773 -0.0017965747 0.027457897 0.04373119 0.002116869 -0.039824046 0.015537994
00000000: 7973 c5bc 74be eebb 9bbb 193c fe48 393d
00000010: 3393 2cbc ed1e 9fbc d7c2 963c 29c9 22bd
00000020: 28fa 5e3c 429e 3b3d 6ad6 45bc ff28 7c3d
00000030: d4fc 36bd 4b59 a5bc e78a 653d 1f31 ef3c
00000040: 7ee5 5d3d 22c9 d4bc 1711 bc3b 359e 87bd
00000050: f578 263d a795 603d 4f0a 493d 0c63 63bd
00000060: 0436 c8bc 89a0 833d 9bc5 08bd be85 31bd
00000070: 06f2 b6bc ebaf 4e3b 7312 1b3d 5e8b e4bb
00000080: 97fa c93c ac9f 4b3d cd1b 6d3d e72c 9e3b
00000090: 9501 393d 05d7 203d 2baa 993d 0e0e 183d
000000a0: b48a ddbb b31b bb3b 0372 8f3d cb80 ac3c
000000b0: 68ec 2c3d 986e f7bc 4e52 863b a42d 193d
000000c0: 3adb 333d 64a4 02bd 391a 76bb f9b8 4a3c
000000d0: 97ac b2bc 9f9c 6c3c 7b81 96bd 2b9c 353d
000000e0: 67e4 573d e2e3 b4bc 67ce 293d 71c1 103d
000000f0: b64e 01bc df74 533d 0e33 21bb 97c2 903b
00000100: 4fd9 e9bc daf3 303d a931 56bd 7615 79bd
00000110: 9129 90bc 1b11 c0bc 2a95 a7bc c498 c0bc
00000120: 69f9 e63c 6ce8 d7bc 0aa5 2c3d f3b7 15bd
00000130: fe7f 143c 3e76 183d d316 60bc c051 2c3d
00000140: db71 0d3d d055 033b 7f96 113d 08c3 f339
00000150: 26c6 dbbc 2d61 683d 16d5 48bc a48a 2dbd
00000160: f164 45bc fc87 6bbd f397 0c3d 4a2c 603c
00000170: d611 35bc c806 90bc accc c63b c688 373d
00000180: 0d86 013d 50e8 0cbd efc2 c23b b03f 12bc
00000190: 712f a33d f984 443d 6947 30bd 082b b93c
000001a0: a7cb de3c 03d7 1abd 2bc4 e7bc 08b0 81bd
000001b0: 6d28 f9bc d35f 82bc f05a 4abd 5cb3 c1bc
000001c0: b91f 563d 5aa6 f63c ed28 dabc 89a3 92bd
000001d0: fcd3 81bb f393 ddbc 0a44 a73c df13 853c
000001e0: 782a 3fbc f7f0 033c 9726 00bd 5464 fb3b
000001f0: f10d 753b 89d2 b3bc dd76 053d 8d77 56bd
00000200: da6f b83d b285 623c afd1 5f3d 86d1 22bd
00000210: d0fa 293d 378d a2bc da72 ae3c 04bd 403c
00000220: 88ca 9c3c 087d 77bd 4a83 ed3c 7087 af3c
00000230: ff2b 973c d91f c7bb 31fe 15bc 5a53 92bc
00000240: f8ed f43b 6147 663d 2d36 f23b d3b6 f7bc
00000250: fdb8 403d fbc4 893d c475 563d 0a3e 8c3c
00000260: ce29 d13c 3595 aabc 5ad8 1d3c 29bd cfbc
00000270: 5345 d6bc ea46 d6bc 2fab 7d3c 6599 803b
00000280: 14de 9ebc 5ae3 b03c eb0f 533d 94bc 813d
00000290: 3609 48bd f5f6 d8ba 7f9b 1f3d 1d6f 893c
000002a0: 593b 743d 2338 873d 7a74 c2bc 2458 483d
000002b0: dc5f a3bc 30c4 083c c3c6 c9bc 79ab 9c3d
000002c0: f708 e7bb be17 bdb8 b1dc 5fbd 4123 89bc
000002d0: d3ee 6e3c 4253 953c 3cd9 2dbc 634b 003c
000002e0: 4108 6fbc 4743 f53c cbc8 1b3d e5c7 0a3c
000002f0: 17a0 dd3c 4956 8e3b aaf9 283d dec4 31bd
00000300: 8380 f03c e4af 5b3d 6e23 89bd 2715 453d
00000310: aa5a 723d b991 923d ce1a 6f3a e50c 2dbd
00000320: 8128 753d 3d1f 3dba 2bf7 86bc d7d1 613d
00000330: 9828 953b 170e 003c 1248 02bd ec2c 34bc
00000340: 7630 01bd ed49 313d 30a3 483d 97a5 bf3c
00000350: 981a 6c3d 606b e7bb 630e 21bd e14d 04bd
00000360: 995e a5bb 7934 0dbb 5e6f 5bbc 514a e338
00000370: e2c9 bcbc 6a35 9bbc 1345 643d e5f6 123d
00000380: 167c aabc 8ee9 beba 9fef 3c3d 0928 153d
00000390: 9293 0abd 4396 3dbd a5f5 273d 57da 1a3c
000003a0: 5a4a 47bb 6927 f7bc 644b b3bc 702f 3a3c
000003b0: 9976 e83c 1b33 063c b99b b03d fa17 ad3c
000003c0: 74de 123d 4701 88bb 7099 733d 921c 2fbc
000003d0: 91af ff3c bac1 203d a115 983c 4eff 85bc
000003e0: 088a 7a3a 3c0a 0ebd 0b7b ebba 62ef e03c
000003f0: 7a1f 333d 2bbb 0a3b 8a1e 23bd 1293 7e3c

action_model._discrete_distribution.branches.0.weight f4 [9, 256]
-0.0060153357 -0.0061435592 0.00712259 0.041786086 0.009401168 0.0062807165 0.04123833 0.001980368
0.011276976 -0.0392779 0.001890251 0.050121296 -0.030704457 0.030201651 0.0027671333 0.033197287
0.026411915 0.039832305 0.031246196 -0.010130812 -0.038373433 -0.049837794 0.020614091 -0.011446372
0.12154434 0.06270011 0.025526365 -0.019712282 0.004018349 -0.047605794 0.048797723 0.01695959
-0.003010616 0.008833907 0.056589108 0.017731614 0.0342539 -0.0010537587 -0.08983281 0.064351596
-0.040838342 0.064477734 0.019494306 0.06792713 -0.014713449 -0.0023240496 0.025175171 -0.044683646
0.08821447 -0.0053053764 0.011722161 -0.051663544 -0.01021522 -0.07424895 -0.016024992 0.027322166
0.030514209 -0.03778142 0.029428225 -0.021713873 -0.029558437 0.03939251 -0.0048175594 -0.0026004384
0.017382268 -0.050940108 -0.023218872 0.008043094 0.02286765 -0.041911677 -0.004688915 -0.009950982
0.016832383 0.010967447 -0.02833004 -0.02924898 0.037341475 0.0073193186 0.009538747 -0.040078554
-0.026589537 -0.035136454 0.026569946 -0.06747009 -0.0053610834 -0.02135048 -0.020404486 -0.012519168
-0.038318824 0.0054513924 -0.025693057 -0.04696833 0.0056286417 0.034382198 0.019358924 0.044245653
0.031507656 -0.030064821 0.07011451 -0.06750562 0.056007367 -0.03437233 -0.0038299279 0.032702994
0.03780044 0.007288185 0.048134603 -0.0075406427 -0.0038364092 0.107993945 0.0071706474 -0.013469532
0.0018734541 0.0283476 -0.0067808595 -0.026691763 -0.020108346 0.020902095 0.017314803 -0.03157038
0.028386593 -0.012341975 -0.020563599 0.027046736 -0.003345648 -0.05685249 0.068481244 0.014157961
-0.03637714 0.08065735 -0.012402947 0.014938426 0.03412335 0.020643063 0.0093869 0.009599756
0.026323298 -0.016800595 0.06145055 -0.0022764762 -0.021985808 0.035560496 -0.028943771 0.07291901
0.029463565 -0.036321685 0.035681766 -0.015439828 0.017862683 0.0013814837 0.017805515 0.043425683
0.0067997617 0.002461053 -0.00089908735 0.06773539 0.0025220946 0.015277505 0.0037777852 0.015151613
-0.05474859 0.04024859 0.00791325 -0.039227556 -0.019192256 0.00827615 0.002344354 0.03443403
0.037486147 0.098558016 -0.003933158 0.027016532 -0.017403645 0.04588677 -0.041406315 0.01848123
-0.04420915 -0.043327004 -0.004199543 0.04751808 0.025925376 -0.010341826 0.014985252 -0.009892538
-0.04604697 0.018667666 0.029836155 -0.05794843 -0.043117713 -0.027825788 0.018575815 0.017798493
0.018549692 -0.060700145 0.0035614588 0.010748377 0.023441285 -0.068477504 -0.015574078 0.018215774
0.0061569163 -0.053043436 0.021458853 0.064442456 0.0055807396 -0.050798144 0.0046113348 0.0017305398
-0.03714551 0.07745481 0.037352987 -0.017390972 0.09838234 -0.02007598 0.0043385457 0.06500897
-0.040672887 0.017793875 0.025863603 0.10817498 -0.028137928 0.057752818 -0.068483554 0.017053112
0.014859149 0.008496933 0.12500653 -0.023993853 -0.025217382 -0.023277067 0.06733508 0.048107136
-0.008831257 0.018711414 -0.0010120394 0.07780175 -0.009527524 0.025157545 -0.027826626 0.026877152
-0.0054072356 -0.0575884 -0.03103186 -0.07414605 0.07748759 0.05561717 -0.035140444 0.006318785
0.014498805 0.036252093 -0.06076601 -0.023850841 -0.03127043 0.04228426 0.032770183 -0.059453167
00000000: 4b1c c5bb e94f c9bb 9e64 e93b e327 2b3d
00000010: 5b07 1a3c 78ce cd3b 86e9 283d 10c9 013b
00000020: 11c3 383c dde1 20bd 4cc2 f73a fd4b 4d3d
00000030: ea87 fbbc 7469 f73c cb58 353b e1f9 073d
00000040: cd5d d83c 3327 233d 06f8 ff3c b5fb 25bc
00000050: 762d 1dbd b722 4cbd e2de a83c 9089 3bbc
00000060: 3dec f83d ea68 803d ab1c d13c a77b a1bc
00000070: 5bac 833b 4bfe 42bd 1fe0 473d d7ee 8a3c
00000080: c14d 45bb 17bc 103c fbc9 673d e441 913c
00000090: d14d 0c3d 461e 8aba 44fa b7bd c5ca 833d
000000a0: 1b46 27bd e70c 843d 86b2 9f3c 611d 8b3d
000000b0: ae10 71bc 154f 18bb 293c ce3c 3306 37bd
000000c0: caa9 b43d b9d8 adbb 4f0e 403c 279d 53bd
000000d0: bd5d 27bc d50f 98bd d846 83bc bcd2 df3c
000000e0: eff8 f93c b1c0 1abd 7613 f13c 4be1 b1bc
000000f0: 8924 f2bc 0a5a 213d 9edc 9dbb 1e6c 2abb
00000100: 4265 8e3c 93a6 50bd 8135 bebc 2ec7 033c
00000110: f054 bb3c 94ab 2bbd 78a5 99bb 7209 23bc
00000120: 11e4 893c cfb0 333c 6614 e8bc 8f9b efbc
00000130: 60f3 183d e5d6 ef3b 6848 1c3c 6929 24bd
00000140: 4dd2 d9bc 3eeb 0fbd 37a9 d93c c22d 8abd
00000150: 07ac afbb 34e7 aebc 4f27 a7bc 321d 4dbc
00000160: 33f4 1cbd 98a1 b23b 3f7a d2bc dd61 40bd
00000170: 7870 b83b 59d4 0c3d 9b96 9e3c ee3a 353d
00000180: 2c0e 013d 804a f6bc 3298 8f3d 6340 8abd
00000190: fb67 653d 00ca 0cbd 87ff 7abb 93f3 053d
000001a0: a2d4 1a3d bad1 ee3b ca28 453d 7f17 f7bb
000001b0: 446c 7bbb ee2b dd3d c0f7 ea3b 50af 5cbc
000001c0: b08e f53a 3a39 e83c f931 debb afa8 dabc
000001d0: 42ba a4bc df3a ab3c c6d7 8d3c f14f 01bd
000001e0: 008b e83c ff35 4abc fe74 a8bc 1e91 dd3c
000001f0: a942 5bbb 28de 68bd e53f 8c3d cbf6 673c
00000200: 3200 15bd ae2f a53d bb35 4bbc 4dc0 743c
00000210: edc4 0b3d a41b a93c 83cb 193c 4c48 1d3c
00000220: f5a3 d73c 67a1 89bc 92b3 7b3d ef30 15bb
00000230: 951b b4bc e2a7 113d 7d1b edbc 9056 953d
00000240: 935d f13c 0cc6 14bd 0b27 123d 55f7 7cbc
00000250: c354 923c e712 b53a dfdc 913c 21df 313d
00000260: 89d0 de3b 9e49 213b bbb0 6bba dab8 8a3d
00000270: ba49 253b 804e 7a3c b894 773b 793e 783c
00000280: 0f40 60bd b5db 243d 93a6 013c 13ad 20bd
00000290: 1439 9dbc b098 073c bca3 193b b30a 0d3d
000002a0: 138b 193d c9d8 c93d b8e1 80bb c651 dd3c
000002b0: 1792 8ebc c4f3 3b3d ab99 29bd f365 973c
000002c0: a714 35bd a877 31bd 529c 89bb 51a2 423d
000002d0: 7461 d43c c370 29bc b484 753c 5014 22bc
000002e0: bf9b 3cbd efec 983c f46a f43c 555b 6dbd
000002f0: 339c 30bd e8f2 e3bc 4f2c 983c 25ce 913c
00000300: 86f5 973c b7a0 78bd 5d67 693b f619 303c
00000310: f007 c03c ef3d 8cbd 6b2a 7fbc 3f39 953c
00000320: f5bf c93b 1344 59bd 7aca af3c 68fa 833d
00000330: a3de b63b b711 50bd ae1a 973b 48d3 e23a
00000340: e425 18bd a1a0 9e3d 72ff 183d 8377 8ebc
00000350: ae7c c93d 6276 a4bc 5c2a 8e3b 6c23 853d
00000360: 9d98 26bd 76c4 913c e8df d33c d88a dd3d
00000370: 8381 e6bc 388e 6c3d 1b41 8cbd f8b2 8b3c
00000380: ca73 733c b836 0b3c b601 003e c28e c4bc
00000390: af94 cebc 8caf bebc f9e6 893d fd0b 453d
000003a0: fab0 10bc ae48 993c 68a6 84ba 8656 9f3d
000003b0: 5519 1cbc 3217 ce3c aaf4 e3bc 792d dc3c
000003c0: 2e2f b1bb d0e1 6bbd 8736 febc e2d9 97bd
000003d0: d0b1 9e3d d4ce 633d 6def 0fbd cf0d cf3b
000003e0: 658c 6d3c 137d 143d c8e5 78bd d762 c3bc
000003f0: 6c15 00bd 4332 2d3d 073a 063d 2a85 73bd

action_model._discrete_distribution.branches.0.bias f4 [9]
-0.0012213392 -0.08512128 0.007943735 0.024800148 0.04354097 -0.008122169 0.010608742 0.017948234
-0.00953115
00000000: 5815 a0ba 1154 aebd 7126 023c ae29 cb3c
00000010: 0458 323d d912 05bc 4ad0 2d3c 2d08 933c
00000020: 8a28 1cbc
