Project-E_game/Assets/characters/Npc/Npc.onnx (onnx, 284523 bytes, 6 tensors)

network_body._body_endoder.seq_layers.0.weight f4 [256, 6]
0.41141242 -0.17288345 0.13787618 -0.28631213 -0.8510512 0.10913002 -0.43877345 0.2808043
-0.43434408 -0.01699052 -0.3452723 0.14387296 0.10640619 -0.7633713 -0.71546596 0.1956228
0.95497274 -0.7051986 -0.36883312 0.21271871 0.66635984 -0.31752554 0.09023493 -0.087257355
-0.21233237 0.042253323 0.083526544 0.17256339 -0.10299362 0.3780787 0.9194925 -0.04075335
0.010732461 -0.46079472 0.19570541 0.19134088 -0.22704686 -0.07970351 0.36383316 -0.3992019
0.082620874 0.5603815 0.045985125 0.4950256 0.9034034 0.51152545 -0.7691457 0.56277925
0.22393626 1.1618562 -0.36486554 -0.41984358 -0.13543026 -0.7723152 -0.13741443 0.06693152
0.4351443 0.93210375 -0.42973462 0.32653853 -0.091560625 -0.2901636 0.25696948 0.29426804
-0.464782 0.027234556 -0.08661647 0.22123076 0.16961588 0.50971353 -0.08239557 0.17984818
-0.47846097 -0.21612467 0.057169758 0.16990277 0.77679276 0.2972721 0.0921391 -0.9392762
-0.11496076 -0.07426984 -0.4259698 -0.010885811 0.0033653765 0.4083348 -0.11048155 -0.5728396
0.23387103 0.06124113 -0.5570405 -0.4870527 -0.44453835 0.04516134 0.53549427 -0.8517652
-0.56451225 0.5799016 -0.43709192 0.4201326 0.24533197 0.29858828 0.21662185 -1.1966381
-0.5020792 -0.23088051 0.46893525 -0.16855119 0.10815329 -0.092404544 -0.4488847 0.13325395
-0.4708171 -0.13754943 0.5898229 0.12391861 -0.5433517 -0.35395205 -0.29375398 0.4433418
0.7008102 -0.2007366 -0.2483226 -0.16929697 0.096973345 -0.46696755 -0.3542805 -0.23770665
-0.72042865 -0.7606455 0.03227597 -0.40764678 0.9528846 0.31560752 -0.38495848 -0.04435878
-0.3718331 0.0816643 0.24648905 -0.6061505 -0.19592959 -0.28718078 0.6000342 0.19871035
0.23434447 -0.34968013 0.3034001 0.18321571 0.8282202 -0.26729926 -0.21202238 -0.08464321
0.10259294 0.22230949 0.48894855 0.7083121 0.06516726 -0.12757657 0.100811966 -0.05199845
0.19032738 -0.24310811 0.41254768 -0.06556529 -0.11683914 0.11635601 0.13406089 -0.2848435
0.27226627 0.32995754 -0.617728 -0.09921853 0.18513346 -0.29606125 0.5791218 -0.32162
-0.53128654 -0.34675175 0.46287253 0.88767785 1.2829657 -0.6172725 0.7736957 -0.1546349
0.46364987 -0.036862172 0.4559173 -0.4420972 0.11246248 0.31135613 -0.48160005 0.12383199
-0.11321461 -0.4101349 -0.09492631 0.112192586 -0.14575535 -0.34283036 -0.5363046 0.17269547
-0.018449325 -0.80100757 -0.060860608 -0.3455191 -0.65596366 -0.22498499 0.014946767 -0.38204575
-0.50485694 0.3752941 0.68329746 -1.0306607 0.24550149 0.14648007 -0.23306169 0.22368856
-0.17728668 -0.41772583 -0.06245614 0.12387427 0.3904922 0.33038658 -0.009308577 -0.14945084
0.24611303 0.040583875 0.5268979 -0.23344325 0.8448414 0.6372824 0.73080546 0.9869679
0.018392755 0.36458126 0.15427195 0.08998452 -0.14714755 -0.3339341 0.28907582 0.18565525
0.3455681 0.13344152 0.108909756 -0.9401828 -1.155536 0.004080991 -0.122247905 0.18044521
0.41176844 -0.04873252 0.3811918 0.3713724 0.22817974 0.193698 0.0928182 0.5721844
00000000: a6a4 d23e 5c08 31be 6a2f 0d3e 8197 92be
00000010: 7ede 59bf 8f7f df3d eaa6 e0be 95c5 8f3e
00000020: 5962 debe b42f 8bbc 88c7 b0be 6f53 133e
00000030: 7deb d93d 4d6c 43bf c728 37bf 5851 483e
00000040: 1879 743f e587 34bf b2d7 bcbe efd2 593e
00000050: 8f96 2a3f b592 a2be 17cd b83d fcb3 b2bd
00000060: a86d 59be d211 2d3d f70f ab3d 75b4 303e
00000070: 52ee d2bd 8893 c13e dc63 6b3f fcec 26bd
00000080: 34d7 2f3c 49ed ebbe 0067 483e ddee 433e
00000090: f97e 68be 983b a3bd 5748 ba3e 3164 ccbe
000000a0: 2235 a93d 2975 0f3f e65a 3c3d ff73 fd3e
000000b0: 7245 673f 55f3 023f bce6 44bf 4d12 103f
000000c0: 8c4f 653e b4b7 943f a8cf babe bdf5 d6be
000000d0: 3bae 0abe 73b6 45bf 5eb6 0cbe 6513 893d
000000e0: 3ccb de3e 5a9e 6e3f 2d06 dcbe 0f30 a73e
000000f0: 2384 bbbd 5390 94be 8191 833e 4daa 963e
00000100: e8f7 edbe 011b df3c fa63 b1bd 518a 623e
00000110: c9af 2d3e 967c 023f 02bf a8bd 1f2a 383e
00000120: d6f8 f4be c94f 5dbe d62a 6a3d fefa 2d3e
00000130: e4db 463f 0c34 983e 6db3 bc3d 6874 70bf
00000140: 8c70 ebbd c91a 98bd b718 dabe 675a 32bc
00000150: a68d 5c3b 4211 d13e 2744 e2bd 9ea5 12bf
00000160: e37b 6f3e fbd7 7a3d 359a 0ebf f95e f9be
00000170: 889a e3be 19fb 383d 2716 093f 490d 5abf
00000180: e083 10bf 6e74 143f 83ca dfbe 9f1b d73e
00000190: 4e38 7b3e 90e0 983e 1ed2 5d3e 702b 99bf
000001a0: 4388 00bf f16b 6cbe 4818 f03e af98 2cbe
000001b0: 797f dd3d 983e bdbd 37d4 e5be b973 083e
000001c0: f00e f1be c2d9 0cbe a2fe 163f 0ac9 fd3d
000001d0: 1919 0bbf 3439 b5be ec66 96be b2fd e23e
000001e0: 4c68 333f e58d 4dbe 4848 7ebe 2f5c 2dbe
000001f0: f699 c63d 5f16 efbe 4164 b5be 5f69 73be
00000200: 036e 38bf aab9 42bf cf33 043d 14b7 d0be
00000210: 3ff0 733f 4f97 a13e 4719 c5be 8db1 35bd
00000220: e860 bebe 9d3f a73d a067 7c3e ae2c 1bbf
00000230: c4a1 48be 5c09 93be d79b 193f ba7a 4b3e
00000240: fff7 6f3e 4609 b3be 4257 9b3e e69c 3b3e
00000250: 3d06 543f 73db 88be 651c 59be 6b59 adbd
00000260: 3f1c d23d 19a5 633e 7757 fa3e f153 353f
00000270: 6a76 853d 6fa3 02be 8176 ce3d 54fc 54bd
00000280: 2ee5 423e 55f1 78be 7339 d33e 1847 86bd
00000290: 5c49 efbd 0f4c ee3d 4247 093e 02d7 91be
000002a0: 7c66 8b3e 32f0 a83e 6c23 1ebf 1633 cbbd
000002b0: a093 3d3e 5795 97be 5441 143f 60ab a4be
000002c0: 6502 08bf 7289 b1be a1fd ec3e db3e 633f
000002d0: 3838 a43f 9205 1ebf ec10 463f 9c58 1ebe
000002e0: 8463 ed3e cafc 16bd fe6d e93e 905a e2be
000002f0: bb52 e63d 126a 9f3e 4894 f6be a09b fd3d
00000300: 10dd e7bd 34fd d1be ba68 c2bd 3ac5 e53d
00000310: e440 15be 7687 afbe 424b 09bf 15d7 303e
00000320: 0a23 97bc d50e 4dbf f948 79bd e1e7 b0be
00000330: 3ced 27bf 7762 66be 49e3 743c 809b c3be
00000340: 4e3e 01bf 8c26 c03e 95ec 2e3f b1ec 83bf
00000350: be64 7b3e dffe 153e b9a7 6ebe 9d0e 653e
00000360: a48a 35be 29e0 d5be 02d2 7fbd cbb1 fd3d
00000370: 98ee c73e 6e28 a93e 0083 18bc a409 19be
00000380: 0e05 7c3e 473b 263d c8e2 063f bf0b 6fbe
00000390: 8747 583f f024 233f 1116 3b3f eea9 7c3f
000003a0: 67ac 963c 65aa ba3e 77f9 1d3e ce49 b83d
000003b0: d9ad 16be 69f9 aabe bf01 943e 691c 3e3e
000003c0: 4dee b03e e5a4 083e 140c df3d d2af 70bf
000003d0: 9be8 93bf d5b9 853b 1c5d fabd a1c6 383e
000003e0: 50d3 d23e c09b 47bd 922b c33e 8624 be3e
000003f0: f3a7 693e c558 463e 7817 be3d ad7a 123f

network_body._body_endoder.seq_layers.0.bias f4 [256]
-0.035153136 0.00042365195 0.013005312 -2.8237698e-06 0.11489922 -0.026150892 -4.0995917e-07 -0.042604852
-0.03148029 0.0012687133 0.028398892 0.0011536238 0.06283599 0.11114288 -0.0021194224 0.00015148845
-0.0010305328 0.07470855 -0.062367473 -0.041770164 -0.061286278 -3.6777729e-16 -0.042902254 -0.024810854
0.0059071137 0.012083874 0.022847174 -0.038843676 -0.055508193 -0.034036342 -0.052286427 -0.047693316
0.024732713 -2.5760643e-19 2.8163054e-14 -0.046301685 0.09602286 0.00083321886 -0.034113992 0.048160404
-1.7483524e-08 0.037042536 -0.040773917 0.0066793542 -0.045653224 6.452589e-13 0.044548746 0.05886285
-0.015551919 0.029814262 0.0062525203 -0.016177412 -1.847561e-22 4.4813472e-26 0.0044100573 -0.04979314
-0.017419787 4.1184543e-05 0.010380842 0.005577419 -0.041403294 -0.011550866 0.0058598123 0.07159284
-0.03102897 0.050698083 0.027055984 0.040335145 -0.008528085 0.0076827346 0.083217636 -0.039522853
0.126995 0.10405771 -0.051149867 0.0033223957 0.07754101 -0.047631115 -0.00079089706 -2.322497e-06
-0.04074956 0.048227437 -0.0013606098 0.0025178618 -0.026950866 0.039409474 0.072291456 9.541895e-06
0.103737615 0.020732196 0.06223748 -1.7223847e-06 0.08023242 -0.046409205 0.0042638597 -0.04131955
0.13598557 1.0342972e-14 -0.004060705 -0.06254912 0.06734718 0.057627134 0.019305509 0.0072097527
0.0046835365 -0.056401577 0.12622699 -0.024507064 -0.006710733 0.010308463 -0.0002823116 -0.04472358
-2.8732897e-10 0.0574935 0.0047011552 0.012079381 0.07090754 0.009837005 -0.016359234 -0.0072754705
0.0011712066 0.00095250347 -0.022167321 -7.801235e-21 0.03002925 3.3630508e-11 -0.045398362 1.111726e-16
0.0016359237 -0.042869005 2.606287e-12 0.02833122 0.0001272865 0.11836308 0.052625824 0.019585004
0.051471133 0.10366266 -0.044155087 -0.043367814 0.014140762 0.071995355 -0.042613734 1.6076427e-06
0.11942694 -0.00028397547 0.0037392352 -0.02060581 -0.035908874 -9.693548e-13 -0.034857433 0.01143432
0.10972368 -3.2804124e-05 0.01933607 3.7579904e-12 0.023474123 0.0045272512 -0.06097469 -0.029187808
0.0220089 -3.268812e-05 0.013440029 6.6174454e-16 -0.021473654 2.216265e-11 0.0010757023 0.054611396
0.056042045 -0.020211337 -0.08231324 0.020927178 0.0003022725 0.014756251 -3.521775e-09 0.14646591
0.025993837 -5.547599e-19 0.010750549 0.0055734618 -0.0070928754 -1.1915452e-06 -0.020361155 0.015929433
0.044360556 -0.057868194 -0.05026601 -0.067657515 -1.134851e-07 2.0038595e-08 -0.01786085 0.06312884
-0.0014745742 0.06339644 0.027886515 0.07881667 0.067240946 0.039059438 0.0031485471 -0.051837668
0.042273283 -0.022466429 -3.4219603e-24 7.3539015e-11 7.722314e-05 6.5006856e-07 -2.1069853e-05 -1.1052755e-07
-0.00256767 0.015329244 -0.0005332287 -0.013605554 0.039775323 0.0016953957 0.12825486 0.11234838
-4.6319296e-13 0.00025926388 4.992079e-11 0.023323504 0.021263083 -0.03416247 -0.0018384947 0.07885262
0.10238292 -0.040708017 0.09500146 5.2974297e-08 0.09403625 -1.640757e-16 -8.0500075e-07 0.023599936
-7.48286e-26 0.00078848336 0.001110802 -0.058958307 -9.964597e-07 -0.0077180048 0.01679465 0.00511022
-3.95906e-08 0.013688387 0.023860468 0.01965321 9.166624e-05 -0.0005332844 -0.031510178 -1.12799095e-08
0.06160843 0.037780423 -0.0001089224 0.027251435 -0.0042192205 -7.779606e-08 -0.0254848 -0.04525334
00000000: bcfc 0fbd 9a1d de39 3b14 553c ff7f 3db6
00000010: 4850 eb3d 653a d6bc 5c18 dcb4 6d82 2ebd
00000020: 7af1 00bd f44a a63a cba4 e83c 3135 973a
00000030: 28b0 803d e19e e33d 02e6 0abb dfd8 1e39
00000040: f112 87ba cc00 993d 0975 7fbd 3117 2bbd
00000050: 5207 7bbd 5902 d4a5 46ba 2fbd 2240 cbbc
00000060: 7690 c13b 71fb 453c ff29 bb3c 8c1a 1fbd
00000070: 8f5c 63bd b169 0bbd 4b2a 56bd 115a 43bd
00000080: 429c ca3c 6210 98a0 95ab fd28 d6a6 3dbd
00000090: a2a7 c43d 5f6c 5a3a 1dbb 0bbd d843 453d
000000a0: ad2e 96b2 eab9 173d 8d02 27bd 7cde da3b
000000b0: e0fe 3abd ce9f 352b bf78 363d 2c1a 713d
000000c0: 7acd 7ebc 0a3d f43c f1e1 cc3b 7e86 84bc
000000d0: 3e5b 5f9b d3e7 5d15 3e82 903b e4f3 4bbd
000000e0: f1b3 8ebc 91bd 2c38 6814 2a3c c8c2 b63b
000000f0: 8096 29bd d83f 3dbc ab03 c03b 449f 923d
00000100: 7730 febc cba8 4f3d 83a4 dd3c 7736 253d
00000110: 62b9 0bbc 73bf fb3b 026e aa3d b7e2 21bd
00000120: fa0a 023e 351c d53d 8682 51bd 8dbc 593b
00000130: d2cd 9e3d d818 43bd 3454 4fba 32dc 1bb6
00000140: 03e9 26bd 228a 453d 7d56 b2ba b602 253b
00000150: 10c8 dcbc d46b 213d 8b0d 943d 2116 2037
00000160: 6374 d43d 91d6 a93c baec 7e3d b02c e7b5
00000170: e550 a43d 9417 3ebd d9b7 8b3b b03e 29bd
00000180: cd3f 0b3e 8a52 3a28 aa0f 85bb c119 80bd
00000190: 51ed 893d 6e0a 6c3d 9626 9e3c ca3f ec3b
000001a0: 5a78 993b 5705 67bd a641 013e 0ac3 c8bc
000001b0: b5e5 dbbb d4e4 283c 3903 94b9 1330 37bd
000001c0: f5f5 9daf 4e7e 6b3d 260c 9a3b 99e8 453c
000001d0: f937 913d 642b 213c cd03 86bc 1267 eebb
000001e0: 2c83 993a 6db1 793a 3e98 b5bc 755c 139e
000001f0: e7ff f53c 96e8 132e a2f3 39bd 5c2c 0025
00000200: 7e6c d63a 6997 2fbd b166 372c e016 e83c
00000210: 3678 0539 5868 f23d 2d8e 573d bb70 a03c
00000220: 65d3 523d 174d d43d f7db 34bd 73a2 31bd
00000230: a8ae 673c 4d72 933d bd8b 2ebd 2fc6 d735
00000240: 1d96 f43d 8be2 94b9 f50d 753b 84cd a8bc
00000250: 2f15 13bd b06c 88ab abc6 0ebd 0457 3b3c
00000260: cfb6 e03d 2997 09b8 ae66 9e3c f838 842c
00000270: ce4c c03c 5659 943b 99c0 79bd 451b efbc
00000280: 024c b43c 9a1a 09b8 9133 5c3c 21bc 3e26
00000290: 84e9 afbc daf1 c22d 94fe 8c3a 33b0 5f3d
000002a0: 588c 653d 3f92 a5bc d893 a8bd 796f ab3c
000002b0: 547a 9e39 34c4 713c b903 72b1 29fb 153e
000002c0: 07f1 d43c 79bc 23a1 1223 303c 96a1 b63b
000002d0: 5a6b e8bb 2eed 9fb5 70cc a6bc 717e 823c
000002e0: 6ab3 353d 3307 6dbd bbe3 4dbd 0690 8abd
000002f0: 18b5 f3b3 5621 ac32 eb50 92bc b149 813d
00000300: 8046 c1ba fed5 813d 4372 e43c a26a a13d
00000310: 9fb5 893d cafc 1f3d db57 4e3b bc53 54bd
00000320: c026 2d3d 840b b8bc 7461 8498 c9b6 a12e
00000330: dcf2 a138 5f80 2e35 2abf b0b7 2a5b edb3
00000340: 5b46 28bb 8227 7b3c 5fc8 0bba d4e9 5ebc
00000350: 73eb 223d 0a38 de3a 3e55 033e e816 e63d
00000360: 9260 02ab cfed 8739 d08d 5b2e ef10 bf3c
00000370: eb2f ae3c f2ed 0bbd a5f9 f0ba 7c7d a13d
00000380: 23ae d13d 73bd 26bd 2090 c23d db85 6333
00000390: 1496 c03d 992a 3da5 3b17 58b5 a754 c13c
000003a0: 4344 b995 39b2 4e3a 5598 913a 447e 71bd
000003b0: 18be 85b5 51e7 fcbb ef94 893c a273 a73b
000003c0: 530a 2ab3 4245 603c 0777 c33c c5ff a03c
000003d0: f03c c038 1ccc 0bba d110 01bd 91c9 41b2
000003e0: 1f59 7c3d a5bf 1a3d 456d e4b8 673e df3c
000003f0: 6341 8abb d610 a7b3 80c5 d0bc 915b 39bd

network_body._body_endoder.seq_layers.2.weight f4 [256, 256]
-0.036642827 0.068614274 0.063770965 0.034547493 0.051216953 -0.018564377 -0.028017258 0.09873062
0.013313804 0.03683671 -0.012437442 0.05608078 0.06583328 0.014157056 -0.031884756 0.029996343
-0.11176726 -0.08894317 -0.02598858 0.029325504 -0.13821037 -0.0044602677 -0.05143171 -0.0831129
0.058247898 -0.018998198 0.029184427 -0.11929723 -0.039295536 0.012987513 0.014327856 -0.021702213
0.05684241 0.0038289789 -0.0047373367 0.05352036 0.02396423 -0.1575168 -0.06530714 -0.019987887
-0.05294384 0.03165083 -0.0013847692 -0.085303634 0.074898265 -0.0076609245 0.10664227 0.038220897
-0.019353738 -0.072220996 0.034406416 0.009932793 -0.097758956 0.13376735 -0.043280877 -0.10751921
-0.043498322 -0.020971812 0.0054923967 -0.02075812 0.07927826 0.040886573 0.042923685 0.046307895
0.032894604 -0.077091716 -0.0597528 -0.07321853 -0.023492698 -0.020739198 -0.055282813 0.08969521
-0.0539376 -0.058470063 -0.0027115217 0.03683947 -0.050784748 -0.012645626 0.06534174 -0.08570003
0.018565841 0.009941656 0.10910037 -0.07305401 0.025824646 0.010340909 -0.055671524 -0.025503691
0.05432427 -0.026584309 0.022419432 -0.023979254 0.13421181 -0.0007474497 0.047077026 0.044046275
-0.025047556 0.020364013 -0.026209043 0.052368253 0.1279795 0.058247615 0.0137843 -0.06572779
0.033056978 0.05644365 0.038468536 -0.10101914 0.035720512 0.048241753 0.052654795 -0.024294427
0.044266865 -0.12665144 0.11747062 0.0845896 0.04436456 0.09955829 -0.033304553 0.06965127
-0.05614916 -0.09279061 0.06463419 0.035608333 -0.029712435 -0.000101600745 -0.044693056 0.05660762
-0.04567944 0.0073966132 0.108727194 -0.011554937 -0.0029298442 -0.0801046 -0.009803588 -0.09719931
-0.017715922 -0.15384342 0.025389586 -0.039575398 0.008832447 0.12872504 -0.017275985 0.055160016
0.05719878 -0.054897737 -0.040613104 -0.021100463 -0.09548204 0.09107979 -0.074909955 0.07393002
0.08008339 0.052772388 -0.0339163 0.007772435 0.037596337 -0.102936655 -0.07828229 -0.11603179
-0.016249603 0.029858472 -0.07062951 0.023592126 -0.19040845 -0.048658933 -0.028496863 0.038163055
-0.014964641 0.010669874 -0.040194593 -0.136458 0.032920558 -0.04428181 0.04934343 -0.083906256
0.049025666 0.004952684 0.025208334 0.009394853 -0.07270196 0.039885256 -0.10026636 -0.050444406
-0.10380238 0.0046784985 0.12140664 -0.030385464 0.011422194 0.057877086 -0.018738057 -0.04636531
-0.04897241 -0.03735025 -0.049805593 0.12493178 -0.025543472 -0.043963227 0.12156235 0.023756906
-0.009896852 -0.068714775 -0.081485145 0.053048622 0.017168852 0.053919114 0.051027454 -0.019832442
0.014692539 0.05361701 0.08295014 -0.01586203 0.04287517 -0.022575563 0.06132246 -0.07276583
-0.089338765 -0.010194212 0.055626694 -0.006840204 -0.04088961 -0.0806006 0.010139157 0.04195191
-0.034595028 0.068264574 -0.016753899 -0.14348349 -0.02977042 0.046379875 -0.051571175 0.03425335
0.053689 0.060535535 0.11085185 -0.014830183 -0.01749753 -0.006528141 0.07054463 0.10866813
0.0897437 0.03979126 -0.043264028 -0.073602185 0.029846817 0.02628354 -0.011775295 0.09851573
0.0196851 0.006152006 -0.1133115 0.1189965 -0.052823354 0.027515857 0.060586162 -0.05475354
00000000: ca16 16bd a485 8c3d 5a9a 823d ac81 0d3d
00000010: dec8 513d 5214 98bc 7384 e5bc 4833 ca3d
00000020: 2422 5a3c 17e2 163d 6ac6 4bbc f6b4 653d
00000030: 99d3 863d fff2 673c 9799 02bd e4ba f53c
00000040: 3ce6 e4bd d627 b6bd 01e6 d4bc 0a3c f03c
00000050: 0587 0dbe 7027 92bb 0faa 52bd 1937 aabd
00000060: 5995 6e3d 1ca2 9bbc 2e14 ef3c 1b52 f4bd
00000070: 5bf4 20bd 94c9 543c 62bf 6a3c d7c8 b1bc
00000080: 96d3 683d 9bef 7a3b a93b 9bbb 2a38 5b3d
00000090: a250 c43c 164c 21be c0bf 85bd a3bd a3bc
000000a0: a4db 58bd 4da4 013d 2581 b5ba acb3 aebd
000000b0: 4364 993d 7e08 fbbb 4367 da3d 848d 1c3d
000000c0: bb8b 9ebc 9ae8 93bd beed 0c3d 27bd 223c
000000d0: d935 c8bd 4ffa 083e 4a47 31bd 0833 dcbd
000000e0: 4c2b 32bd 14cd abbc 90f9 b33b ef0c aabc
000000f0: a45c a23d ae78 273d bfd0 2f3d 59ad 3d3d
00000100: 7ebc 063d 43e2 9dbd 5abf 74bd 99f3 95bd
00000110: c273 c0bc 40e5 a9bc 3b70 62bd 1fb2 b73d
00000120: aced 5cbd 4e7e 6fbd c9b3 31bb fce4 163d
00000130: ab03 50bd 9a2f 4fbc e4d1 853d 7f83 afbd
00000140: 6417 983c 54e2 223c 0470 df3d 579d 95bd
00000150: 358e d33c ea6c 293c d307 64bd 1eed d0bc
00000160: 2083 5e3d 56c7 d9bc f5a8 b73c 2470 c4bc
00000170: d26e 093e 80f0 43ba d7d3 403d de69 343d
00000180: 8830 cdbc 6ed2 a63c 59b4 d6bc 1880 563d
00000190: 0f0d 033e 0d95 6e3d 8bd7 613c 4b9c 86bd
000001a0: c166 073d 7531 673d 2f91 1d3d 1fe3 cebd
000001b0: ac4f 123d 2599 453d 8eac 573d 1b05 c7bc
000001c0: 2c51 353d eab0 01be 7094 f03d 503d ad3d
000001d0: 9db7 353d 37e5 cb3d 5b6a 08bd 53a5 8e3d
000001e0: a9fc 65bd 0109 bebd ee5e 843d 0bda 113d
000001f0: 7e67 f3bc 7c12 d5b8 1110 37bd 64dd 673d
00000200: 5d1a 3bbd 4a5f f23b 5dac de3d eb50 3dbc
00000210: a102 40bb e10d a4bd 3a9f 20bc 6f10 c7bd
00000220: fb20 91bc 2189 1dbe d2fd cf3c d019 22bd
00000230: f8b5 103c 7fd0 033e 5e86 8dbc 78ef 613d
00000240: 4549 6a3d 73dc 60bd ed59 26bd e1da acbc
00000250: 168c c3bd 0a88 ba3d 646a 99bd 9f68 973d
00000260: c302 a43d dc27 583d d1eb 0abd e9af fe3b
00000270: 9efe 193d 74d0 d2bd 7752 a0bd 13a2 edbd
00000280: e31d 85bc c199 f43c 34a6 90bd 4644 c13c
00000290: 6ffa 42be 974e 47bd 4172 e9bc dd50 1c3d
000002a0: 412e 75bc b2d0 2e3c 16a3 24bd a5bb 0bbe
000002b0: b5d7 063d d860 35bd 561c 4a3d 0bd7 abbd
000002c0: 23cf 483d 204a a23b b581 ce3c dfec 193c
000002d0: c4e4 94bd b95e 233d 7358 cdbd cb9e 4ebd
000002e0: 5896 d4bd 174e 993b 0ba4 f83d f0ea f8bc
000002f0: 2724 3b3c 8610 6d3d 8e80 99bc 8de9 3dbd
00000300: 4b97 48bd 93fc 18bd f300 4cbd 3cdc ff3d
00000310: 8b40 d1bc c912 34bd aef5 f83d d89d c23c
00000320: 6826 22bc 55ba 8cbd afe1 a6bd 8349 593d
00000330: b1a5 8c3c 4ada 5c3d 2a02 513d a577 a2bc
00000340: fab8 703c 839d 5b3d c3e1 a93d 17f1 81bc
00000350: e09d 2f3d 63f0 b8bc 432d 7b3d 4006 95bd
00000360: 3ef7 b6bd a005 27bc d1d8 633d ca23 e0bb
00000370: dd7b 27bd ed11 a5bd b51e 263c c4d5 2b3d
00000380: 84b3 0dbd 4cce 8b3d 793f 89bc 56ed 12be
00000390: 19e1 f3bc d3f8 3d3d 4c3c 53bd 3e4d 0c3d
000003a0: ffe8 5b3d 1cf4 773d 4b06 e33d 4cfa 72bc
000003b0: fb56 8fbc 04ea d5bb b479 903d 668d de3d
000003c0: 8ccb b73d 29fc 223d 9f35 31bd bebc 96bd
000003d0: 5081 f43c 9450 d73c 2bed 40bc 9dc2 c93d
000003e0: a642 a13c c496 c93b dc0f e8bd 70b4 f33d
000003f0: 4d5d 58bd ef68 e13c 3229 783d 3f45 60bd

network_body._body_endoder.seq_layers.2.bias f4 [256]
-0.0016099238 0.0018115137 0.012005929 0.011562427 -0.0033035576 0.0052797166 0.005018198 -0.0055854814
-0.0053327824 0.00015709907 0.019850302 -0.0008388165 -0.0025062456 -0.002740922 -0.0032947366 -0.0078485245
-0.00809326 0.024311112 -0.004189732 -0.026413558 0.02762152 0.01969705 -0.0011792553 -0.008100417
0.0071517653 -0.007573279 -0.0038574045 -0.0011936742 -0.0037107326 -0.012261648 -0.0031393925 0.0006140023
-0.0064812666 0.00981708 -0.0080396375 -0.006204373 -0.0015985233 0.0022843864 -0.007513788 -0.010414402
-0.011017459 -0.014437767 0.0007104529 -0.0040474925 -0.000302194 -0.01109519 -0.0006516949 -0.0033217396
-0.011807491 0.00018198274 0.0035045657 -0.0059903804 -5.9234782e-05 -0.001528247 -0.033696674 -0.010326372
-0.0007263748 -0.00085992704 -0.003889772 -0.018571105 -0.005414472 -0.0032183796 -0.015046002 -0.0076021818
-0.0066418075 -0.007585225 -0.007334182 -0.0012910962 -5.3558847e-06 -0.0037210097 -0.0040757484 -0.013948731
0.0072445637 0.0027950231 -0.0031621319 -0.00032484037 -0.002317081 -0.0033467764 -0.0039837994 -0.0030352308
-1.3000976e-08 -0.0018663731 -0.00056826964 -0.003496207 -0.0020333254 0.0024852408 -0.0046172305 0.022718579
0.035477594 -0.009870984 -0.00614072 -0.005060704 -0.008038506 -0.0028252185 -0.016273372 -0.002674435
-0.0026743843 -0.00647364 0.0120038185 -0.023245683 2.603364e-07 0.021594927 -3.4836515e-07 -0.0041127554
-0.0022722026 0.0359196 -0.0036947306 -0.0053130477 0.00010729067 0.0045699584 0.028192641 0.007322565
-0.0066901594 -0.0058059073 0.03285533 0.00270713 0.002439126 -0.0043919594 -0.00999428 -0.004759993
-0.0067170807 -1.284047e-05 0.0061738063 -0.001540815 -0.0029059844 7.04239e-05 0.00013186017 0.005540998
0.012590605 -0.002215091 -0.005775519 -0.018785821 -0.0050648684 0.0045972075 -0.0017561159 -0.004249736
0.0023101543 -0.00335464 -0.007822142 -0.0021196639 -0.011155474 -0.0046337694 -0.007035849 -0.005369885
-0.004106431 -0.008343195 -0.00022032179 -0.011314369 0.012997668 0.006944774 -0.0025031993 -0.008061648
-0.009436752 -0.0034616366 -0.0077077835 -0.0002994134 -0.008782705 -0.020270668 -0.011899502 0.0018896367
-0.0038221066 -0.025708882 -0.00611157 -0.003505023 -0.00738964 -0.0016471029 -0.0046466435 0.0019306794
-0.0073072277 -0.005990647 -0.0085257655 -0.007012508 1.056242e-06 2.6282204e-10 -0.010995816 -0.004339255
-0.0017547775 -0.0022795608 -0.0061760764 -0.005053958 -0.007544276 0.0018980977 -0.010976134 -0.0019833553
-0.006329307 -0.006205683 -0.008062321 -0.001978204 -0.006824079 -0.003855219 -0.013398947 -0.0027452454
-0.012463723 -0.001357528 0.00097217865 0.03691688 -0.0025956924 -0.0026207694 -0.0129205715 0.003613347
0.00083145883 7.28311e-07 -0.023788804 0.0010385351 -0.004247494 0.00089548447 0.0010697749 -0.00984625
-1.0377697e-05 -0.014090686 -0.004221098 -0.0028540888 -0.0035340344 -0.0065491204 -0.0042385603 -0.018302765
-0.006438052 -0.008065382 0.0046414607 -0.004512566 0.017852377 0.0006564241 -2.7040536e-05 2.0597878e-11
-0.018051757 -0.00013988529 -6.816046e-05 -0.004272566 0.006761522 0.002980751 -0.0028127786 0.0013400163
-0.0028935708 -0.0031470587 -0.0045400457 -0.026568674 0.02427659 -0.00459732 -0.0142905135 0.008714579
-0.005954578 -0.0055717994 -0.0024776373 -0.012216257 0.009518037 -0.022904774 0.0032957105 0.0062253736
-0.0052840747 -0.0016239347 -0.003489257 0.03783265 -0.0028501442 -0.008720509 -0.0040486837 -0.008243397
00000000: 1404 d3ba 5070 ed3a 84b4 443c 5570 3d3c
00000010: 8080 58bb 7901 ad3b b26f a43b 6a06 b7bb
00000020: 9fbe aebb f6ba 2439 1a9d a23c 06e4 5bba
00000030: d33f 24bb 0aa1 33bb 82ec 57bb 1997 00bc
00000040: 9899 04bc 1928 c73c 054a 89bb 3f61 d8bc
00000050: 8746 e23c b55b a13c 3e91 9aba 9db7 04bc
00000060: 5b59 ea3b 4529 f8bb 82cc 7cbb 0f75 9cba
00000070: c32f 73bb 14e5 48bc 44be 4dbb fff4 203a
00000080: ce60 d4bb d1d7 203c afb8 03bc 0e4e cbbb
00000090: 8b85 d1ba a5b5 153b 3936 f6bb 2ba1 2abc
000000a0: 9382 34bc 628c 6cbc b03d 3a3a d4a0 84bb
000000b0: cb6f 9eb9 9ac8 35bc 81d6 2aba 8bb1 59bb
000000c0: 3574 41bc 9fd2 3e39 dbac 653b f44a c4bb
000000d0: dd72 78b8 764f c8ba 8605 0abd f22f 29bc
000000e0: 306a 3eba ba6c 61ba 8ceb 7ebb 6e22 98bc
000000f0: e26b b1bb 73eb 52bb 8283 76bc b91b f9bb
00000100: 85a3 d9bb 7b8d f8bb 9453 f0bb 003a a9ba
00000110: b3b6 b3b6 2fdc 73bb db8d 85bb 3889 64bc
00000120: ce63 ed3b b52c 373b c53b 4fbb 564f aab9
00000130: 2bda 17bb 9755 5bbb 888a 82bb b9ea 46bb
00000140: e65a 5fb2 17a1 f4ba eef7 14ba 9f20 65bb
00000150: 8a41 05bb 6cdf 223b 234c 97bb 501c ba3c
00000160: f450 113d e8b9 21bc 1838 c9bb 43d4 a5bb
00000170: f0b3 03bc 4d27 39bb bc4f 85bc 9345 2fbb
00000180: b944 2fbb d420 d4bb aaab 443c bb6d bebc
00000190: 5dc4 8b34 d8e7 b03c f106 bbb4 4bc4 86bb
000001a0: 3ce9 14bb 6e20 133d 4b23 72bb 1319 aebb
000001b0: 3d01 e138 97bf 953b 41f4 e63c 21f2 ef3b
000001c0: 2039 dbbb 7b3f bebb 4f93 063d 1b6a 313b
000001d0: bed9 1f3b 6dea 8fbb 0cbf 23bc b7f9 9bbb
000001e0: f51a dcbb 666d 57b7 a44d ca3b 2cf5 c9ba
000001f0: 5472 3ebb 8bb0 9338 f243 0a39 4391 b53b
00000200: d348 4e3c 0f2b 11bb 9140 bdbb b9e4 99bc
00000210: 32f7 a5bb 2ca4 963b 792d e6ba 5f41 8bbb
00000220: f565 173b 85d9 5bbb 7128 00bc 0fea 0abb
00000230: 73c5 36bc e0d6 97bb fb8c e6bb dcf5 afbb
00000240: 3d8f 86bb e5b1 08bc 2e06 67b9 e75f 39bc
00000250: 2cf4 543c fd90 e33b b70c 24bb 0115 04bc
00000260: 9b9c 1abc a0dc 62bb 9391 fcbb 96fa 9cb9
00000270: 56e5 0fbc ac0e a6bc 21f6 42bc b0ad f73a
00000280: 4f7c 7abb 6f9b d2bc 9143 c8bb 87b4 65bb
00000290: cb24 f2bb 9ae3 d7ba df42 98bb da0e fd3a
000002a0: 7871 efbb 304d c4bb a7af 0bbc 2ec9 e5bb
000002b0: 33c4 8d35 ea7c 902f cc27 34bc 4f30 8ebb
000002c0: 9000 e6ba af64 15bb af60 cabb ac9b a5bb
000002d0: f935 f7bb 97c9 f83a 3ed5 33bc 2efb 01bb
000002e0: 1366 cfbb 0b59 cbbb d317 04bc c1a4 01bb
000002f0: 869c dfbb d8a7 7cbb 4287 5bbc 93e9 33bb
00000300: a534 4cbc 15ef b1ba ced9 7e3a 2836 173d
00000310: 7e1c 2abb 37c1 2bbb ceb0 53bc e7cd 6c3b
00000320: 42f6 593a 2781 4335 bde0 c2bc 751f 883a
00000330: 902e 8bbb f2be 6a3a b037 8c3a 2a52 21bc
00000340: df1b 2eb7 9fdc 66bc 2351 8abb aa0b 3bbb
00000350: 429b 67bb 019a d6bb 9fe3 8abb aeef 95bc
00000360: 4bf6 d2bb aa24 04bc 6517 983b 26de 93bb
00000370: 263f 923c e013 2c3a 1cd5 e2b7 4c2e b52d
00000380: 47e1 93bc 2cae 12b9 5ef1 8eb8 e200 8cbb
00000390: c28f dd3b b458 433b 9856 38bb 7ca3 af3a
000003a0: 10a2 3dbb e23e 4ebb aac4 94bb 8ca6 d9bc
000003b0: b3df c63c 1ea5 96bb c222 6abc 98c7 0e3c
000003c0: 9f1e c3bb a493 b6bb db5f 22bb b226 48bc
000003d0: 8af1 1b3c cba2 bbbc d9fc 573b 38fe cb3b
000003e0: 0826 adbb 35da d4ba 05ac 64bb 69f6 1a3d
000003f0: 7cc9 3abb 77e0 0ebc d2aa 84bb 500f 07bc

action_model._discrete_distribution.branches.0.weight f4 [9, 256]
0.0044165566 -0.023505423 0.0010435941 0.0017181996 0.010850287 0.015575392 -0.02027682 -0.0005088956
-0.0030447019 0.0011713345 0.004640267 -0.0059586866 -0.0020447369 0.00085466873 -0.010778278 -0.0029987292
-0.019640561 -0.023293892 0.015128065 -0.0025572996 0.0024888956 -0.0305664 -0.004593185 0.0045452486
-0.0027182475 0.0007650198 -0.015243153 -0.018139772 -0.005006421 0.017537292 -0.0030010764 0.005886807
0.044205405 0.021339808 0.0003063046 -0.00034776388 -0.0059152343 0.0011766516 0.008018988 0.0019676536
0.003204777 0.00065282534 -0.0015484092 0.032328017 -0.0018356028 0.00013514572 -0.0070640836 0.0069199656
-0.004619158 0.0009904288 0.003780835 0.016716797 0.011967069 0.00033143532 -0.0065914057 0.0026550833
0.007747407 -0.019153377 -0.014731134 -0.0050349575 0.0037947742 -0.013709997 -0.006997518 -0.008506402
-0.0050355294 -0.004124761 0.00028284456 0.0033641884 -0.007812926 0.011394948 0.00461028 -0.0019574047
0.033656992 -0.014425845 0.004270574 -0.004270682 -0.01378599 -0.0007300558 0.008976708 0.0010632249
-0.0065196436 -0.0054117767 -0.003778776 0.012791122 -0.010413426 0.00023064521 0.0037159782 0.0011937123
-0.053392474 -0.013832026 0.008093587 -0.009554945 -0.009570404 4.933668e-05 -0.0035121967 0.022352554
-0.018329822 -0.005590212 0.018331317 -0.01468964 -0.009556772 -0.023227967 -0.0033370084 -0.002403331
-0.025930718 -0.04165447 0.00066001754 0.012292877 -0.007911523 0.008634153 -0.017166972 -0.025552565
0.001311727 0.014292704 -0.045300167 -0.002367151 -0.0006618715 -0.019366328 0.0037174907 -0.001625951
0.008437746 0.008362273 -0.008645689 -0.0053803087 -0.0040754476 0.01177014 0.012767238 0.010440929
-0.012036645 -0.0070905033 -0.0071394057 -0.017075567 0.0026794984 -0.0003532414 -0.007275911 -0.0062209065
0.019298375 0.016209757 -0.00734594 0.00335474 -0.0018012424 -0.011585574 -0.0027220221 0.0049722455
0.0051925965 -0.012073271 -0.0016259176 -0.008815154 -0.028319562 -0.011179703 0.005128214 -0.0063385675
-0.00075748406 -0.0074174837 -0.0052852943 -0.010877654 -0.009359541 -0.019634612 0.011679097 0.0044774553
-0.002029952 -0.014941501 0.0067973514 -0.012257916 0.0016115298 0.0008969386 0.012581075 -0.0023033614
0.0033473119 -0.0040328354 -0.0038389263 0.012504093 -0.002867753 0.0038653454 0.0023120525 0.005235954
0.0011613299 -0.01309308 -0.014107071 0.009983745 -0.0026247033 0.008354221 -0.016084535 0.022037612
-5.1545583e-05 0.0006774608 -0.0063700518 0.0003748249 0.0055447267 0.0038709007 -0.00901304 -0.0015878971
-0.0054939473 -0.0050261365 0.019788327 -0.056783676 0.002042148 0.0005897806 -0.0006790573 0.007533977
-0.003462939 -0.0009738645 -0.0037324682 0.02333678 -6.715479e-06 0.001630244 -0.0113430265 -0.009177083
-0.012094557 -0.0074582063 0.0032190839 -0.010764829 -0.001837954 0.002213039 0.0038570906 -0.0024966325
-0.001890646 -0.003142254 -0.01356024 -0.014980762 0.021378718 0.010397165 -0.0026997114 -0.0001963259
-0.0043397746 0.0021102943 -0.018987212 0.021059178 0.023380164 0.004709386 0.016976323 0.0040215245
-0.0034341523 -0.010834828 -0.0012230377 -0.004123494 -0.046372153 0.003924312 0.008058699 0.007889714
0.017489314 0.00071679143 0.008195411 -0.007787799 -0.0058752736 0.0032972333 0.001934687 0.022201648
-0.0078849485 -0.0005828761 0.0019082079 -0.02619242 -0.0032567082 0.02231305 -0.0044335704 0.006117443
00000000: c3b8 903b 728e c0bc 35c9 883a 3635 e13a
00000010: 67c5 313c ee2f 7f3c 931b a6bc 6867 05ba
00000020: 9f89 47bb 7787 993a 620d 983b 1641 c3bb
00000030: fe00 06bb d90b 603a 6097 30bc 5486 44bb
00000040: 3ee5 a0bc d5d2 bebc b4db 773c 5e98 27bb
00000050: bd1c 233b 6366 fabc 6e82 96bb 4ff0 943b
00000060: a024 32bb 9c8b 483a 6bbe 79bc dc99 94bc
00000070: e70c a4bb 5eaa 8f3c b5ad 44bb 1ee6 c03b
00000080: ba10 353d d2d0 ae3c 8297 a039 1454 b6b9
00000090: 95d4 c1bb e039 9a3a 1362 033c c0f3 003b
000000a0: 3c07 523b 5e22 2b3a fef3 caba 626a 043d
000000b0: 9c98 f0ba e7b5 0d39 d479 e7bb e1c0 e23b
000000c0: 4e5c 97bb 47d1 813a e3c7 773b aaf1 883c
000000d0: 8611 443c 7fc4 ad39 b8fc d7bb e800 2e3b
000000e0: f6dd fd3b 8be7 9cbc db5a 71bc 49fc a4bb
000000f0: bfb1 783b e59f 60bc 6f4b e5bb 705e 0bbc
00000100: 1501 a5bb 0129 87bb c14a 9439 b779 5c3b
00000110: c901 00bc e0b1 3a3c d511 973b cd47 00bb
00000120: eadb 093d 615a 6cbc 2cf0 8b3b 14f1 8bbb
00000130: a2de 61bc 3761 3fba 0b13 133c e85b 8b3a
00000140: bca2 d5bb 4655 b1bb 57a5 77bb db91 513c
00000150: 139d 2abc 5ad9 7139 c587 733b 5776 9c3a
00000160: 11b2 5abd b99f 62bc f79a 043c 588c 1cbc
00000170: 2fcd 1cbc dbee 4e38 e22c 66bb b41c b73c
00000180: 6c28 96bc 192e b7bb 8f2b 963c d1ac 70bc
00000190: 0294 1cbc 9448 bebc b6b1 5abb 3481 1dbb
000001a0: a86c d4bc e19d 2abd 0705 2d3a 1068 493c
000001b0: 559f 01bc 4376 0d3c c0a1 8cbc 9d53 d1bc
000001c0: 41ee ab3a f22b 6a3c ab8c 39bd 3422 1bbb
000001d0: 7281 2dba 22a6 9ebc 25a1 733b dd1d d5ba
000001e0: 793e 0a3c ea01 093c a6a6 0dbc 4d4d b0bb
000001f0: 558b 85bb 8cd7 403c ad2d 513c 6e10 2b3c
00000200: 5935 45bc 7457 e8bb adf1 e9bb 0fe2 8bbc
00000210: 869a 2f3b 4233 b9b9 c46a eebb bfd8 cbbb
00000220: a017 9e3c 53ca 843c 36b6 f0bb 33db 5b3b
00000230: aa17 ecba 6bd1 3dbc f463 32bb 38ee a23b
00000240: a826 aa3b f8ce 45bc be1c d5ba 706d 10bc
00000250: 6dfe e7bc 132b 37bc 940a a83b c2b3 cfbb
00000260: e591 46ba 5d0e f3bb 4330 adbb 3038 32bc
00000270: c358 19bc c4d8 a0bc af59 3f3c 9eb7 923b
00000280: f108 05bb 33cd 74bc 51bc de3b 6dd5 48bc
00000290: f839 d33a 8820 6b3a da20 4e3c fef3 16bb
000002a0: 935e 5b3b e025 84bb 7f96 7bbb f8dd 4c3c
000002b0: e9f0 3bbb bc51 7d3b ce85 173b 5e92 ab3b
000002c0: c437 983a 5c84 56bc 5821 67bc dd92 233c
000002d0: 3703 2cbb 24e0 083c b7c3 83bc 3988 b43c
000002e0: a632 58b8 a097 313a debb d0bb 2584 c439
000002f0: 8ab0 b53b f0ae 7d3b 6eab 13bc fc20 d0ba
00000300: 9206 b4bb 4ab2 a4bb 211b a23c 0096 68bd
00000310: 8fd5 053b 829b 1a3a c402 32ba 94df f63b
00000320: 7af2 62bb f14a 7fba 6d9c 74bb c62c bf3c
00000330: 8655 e1b6 e9ad d53a 1ad8 39bc 7a5b 16bc
00000340: 4028 46bc f863 f4bb 44f7 523b f75e 30bc
00000350: 81e7 f0ba a208 113b 3ec7 7c3b 8b9e 23bb
00000360: 8dcf f7ba 46ee 4dbb c52b 5ebc df71 75bc
00000370: 6c22 af3c df58 2a3c a4ed 30bb d5dc 4db9
00000380: ab34 8ebb dd4c 0a3b 128b 9bbc 4c84 ac3c
00000390: c287 bf3c 3151 9a3b ee11 8b3c fec6 833b
000003a0: 840f 61bb 9084 31bc 564e a0ba 601e 87bb
000003b0: baf0 3dbd 8497 803b a208 043c dc43 013c
000003c0: c045 8f3c 0fe7 3b3a 0c46 063c cb30 ffbb
000003d0: 5e85 c0bb 6516 583b 5395 fd3a 3be0 b53c
000003e0: df2f 01bc 27cc 18ba d51c fa3a 7c91 d6bc
000003f0: 7f6e 55bb dcc9 b63c 7c47 91bb d574 c83b

action_model._discrete_distribution.branches.0.bias f4 [9]
-0.030990573 -0.009797487 -0.012968955 -0.01845907 0.0128085585 0.023832863 -0.023234678 0.015049057
-0.0074154804
00000000: f1df fdbc a485 20bc bd7b 54bc 7a37 97bc
00000010: fdda 513c 233d c33c a756 bebc 5290 763c
00000020: 8ffd f2bb
