Project-E_game/Assets/characters/Npc/Npc.onnx (onnx, 839611 bytes, 6 tensors)

network_body._body_endoder.seq_layers.0.weight f4 [256, 548]
0.122853436 -0.012968557 0.047061823 0.029663961 -0.059419956 0.028173814 0.14272815 0.013458049
-0.042506076 -0.042596903 0.14393732 -0.041708622 0.013707814 0.117091164 -0.02993131 0.10581638
0.031047244 0.019916799 -0.021292355 0.06895778 0.10268894 0.030950153 -0.030153662 0.086376585
-0.03367078 -0.029943412 -0.031589437 -0.057427056 0.0462289 0.05901421 0.05883414 -0.049142238
0.002144109 -0.020652322 -0.08027873 0.26147047 0.05813817 0.05481392 0.019010404 0.0646048
0.14163081 -0.0036323294 0.023314355 -0.049715232 -0.04089018 0.04607321 0.0026624019 0.05619376
-0.01443314 0.004079069 -0.04061503 0.16740729 0.047458254 0.04406781 -0.06694635 0.17335628
0.20322172 0.06279852 -0.013636183 0.0075154155 -0.0074397908 0.17245485 9.743502e-05 -0.014809112
-0.051607255 0.059443414 0.05051868 0.0012282246 -0.011350368 0.029388584 -0.002315403 0.21768346
-0.0079159355 0.05420951 -0.0405291 0.19820052 0.1672749 0.07052258 0.03627325 0.042853206
0.17047292 0.08528365 0.0047420915 0.021035194 -0.09305716 -0.014026454 0.1691104 0.065171205
0.069808565 0.057029016 0.046269618 -0.21450007 -0.0072743837 -0.022764865 0.1505344 0.01738657
0.057012387 0.021047404 -0.034121763 -0.08874079 -0.20883417 -0.035056833 -0.0014996561 -0.018762622
0.1722261 0.10325449 0.14534268 -0.07109376 -0.06912464 -0.11832926 -0.1809125 -0.11576974
-0.009029829 -0.011434685 0.1683279 0.10828474 0.113234855 -0.00014136912 0.00734681 -0.07351804
-0.18649252 0.06732425 0.032357495 -0.043642823 0.17800272 0.19639069 0.21257828 0.08491515
-0.0093693165 -0.1024416 -0.050111722 -0.17605264 -0.008842959 0.04177324 0.20988879 0.030490022
0.12855937 -0.06048281 -0.03725939 -0.06951714 -0.23793638 0.056067955 -0.099518 0.018545039
0.17476805 0.10627948 0.05998943 0.0010182996 -0.033114664 -0.10443992 -0.16498144 0.074685134
-0.0013848826 -0.00459721 0.15535372 0.0118765365 0.04319371 -0.07291661 0.04737271 -0.22052637
-0.12994985 -0.086435914 0.0649714 0.0562263 0.12715293 0.12062794 0.14055626 -0.049519416
0.13044217 -0.12668945 -0.16683327 -0.0014184535 -0.06873519 -0.0050677196 0.14070414 -0.13540438
0.14955868 0.110461555 -0.030439092 -0.10770176 -0.10854141 0.081552945 -0.039040606 -0.08245582
0.16676633 -0.0029665784 0.08154618 -0.011978681 0.010428374 -0.20306735 -0.12259484 0.112667
0.022913262 0.04113356 0.03554236 -0.09209067 0.08577463 -0.060301606 -0.027934005 -0.18298206
-0.13511664 -0.005075579 0.042511247 -0.013654315 0.17018037 -0.04072618 0.056525912 0.009257201
0.01492127 -0.32205522 -0.1361263 0.1727685 -0.0048662196 -0.037328176 0.17895718 -0.30396643
0.1274411 0.038833912 -0.010247532 -0.25994244 -0.1326681 -0.17078017 0.013170933 -0.058316123
0.26748493 0.16715342 0.047540765 -0.07396868 0.12604576 -0.23937073 -0.15182455 0.2325715
-0.09271393 0.034491982 0.25763267 -0.1260373 0.1189295 0.07023477 -0.04011344 -0.19872601
-0.0133182425 -0.070143625 -0.0010245631 -0.0073969634 0.076608025 0.12872332 0.11699482 -0.029336914
-0.14243376 -0.21225184 -0.21218972 0.025950551 0.03395815 -0.07375817 0.12505983 -0.018304417
00000000: 959a fb3d 127a 54bc e6c3 403d d601 f33c
00000010: 5762 73bd c5cc e63c 5427 123e 267f 5c3c
00000020: da1a 2ebd 177a 2ebd 4e64 133e a9d6 2abd
00000030: bd96 603c 7ecd ef3d 8232 f5bc 42b6 d83d
00000040: ca56 fe3c 8e28 a33c 4e6d aebc bd39 8d3d
00000050: 944e d23d 2d8b fd3c d004 f7bc 35e6 b03d
00000060: 5fea 09bd e34b f5bc ed63 01bd a238 6bbd
00000070: 845a 3d3d e2b8 713d 11fc 703d 5f49 49bd
00000080: 2e84 0c3b 0f2f a9bc 2d69 a4bd 75df 853e
00000090: 4a22 6e3d 9084 603d b5bb 9b3c 854f 843d
000000a0: ab07 113e 600c 6ebb bffd be3c 33a2 4bbd
000000b0: 767c 27bd 43b7 3c3d b17b 2e3b 6e2b 663d
000000c0: fa78 6cbc b6a9 853b f25b 26bd d16c 2b3e
000000d0: 9663 423d 7380 343d 2b1b 89bd 4f84 313e
000000e0: 5b19 503e 839c 803d 4c6a 5fbc e043 f63b
000000f0: 7dc9 f3bb 0198 303e 0756 cc38 eba1 72bc
00000100: 2162 53bd f07a 733d adec 4e3d 61fc a03a
00000110: e5f6 39bc 54c0 f03c 04be 17bb 6ae8 5e3e
00000120: d7b1 01bc cb0a 5e3d d701 26bd 14f5 4a3e
00000130: 1d4a 2b3e 246e 903d 4293 143d d886 2f3d
00000140: 7490 2e3e 32a9 ae3d 8c63 9b3b 0052 ac3c
00000150: c194 bebd 36cf 65bc 472b 2d3e 7b78 853d
00000160: cbf7 8e3d 4297 693d 3685 3d3d e8a5 5bbe
00000170: f45d eebb 627d babc b125 1a3e 486e 8e3c
00000180: d285 693d 9b6b ac3c 43c3 0bbd bbbd b5bd
00000190: a0d8 55be c197 0fbd 1c90 c4ba 12b4 99bc
000001a0: 0a5c 303e 1777 d33d b6d4 143e 9b99 91bd
000001b0: 3891 8dbd 9c56 f2bd 2041 39be af18 edbd
000001c0: d9f1 13bc 8c58 3bbc 265e 2c3e 64c4 dd3d
000001d0: ade7 e73d 7c3c 14b9 82bd f03b a090 96bd
000001e0: e5f7 3ebe 4ce1 893d 4b89 043d d1c2 32bd
000001f0: 5846 363e a41a 493e 1fae 593e ffe7 ad3d
00000200: c381 19bc e7cc d1bd f341 4dbd 2547 34be
00000210: 0fe2 10bc 6b1a 2b3d 16ed 563e 36c6 f93c
00000220: 11a5 033e d3bc 77bd 4d9d 18bd 015f 8ebd
00000230: 98a5 73be 83a7 653d 18d0 cbbd c4eb 973c
00000240: 65f6 323e 0ea9 d93d 7ab7 753d 7778 853a
00000250: 3ea3 07bd 99e4 d5bd e5f0 28be 85f4 983d
00000260: f384 b5ba 31a4 96bb 0c15 1f3e ce95 423c
00000270: e3eb 303d 4e55 95bd e309 423d aad1 61be
00000280: 9311 05be 5005 b1bd ba0f 853d 8c4d 663d
00000290: 6134 023e c80b f73d fbed 0f3e dfd4 4abd
000002a0: a292 053e e1ba 01be 57d6 2abe 67eb b9ba
000002b0: 09c5 8cbd 1d0f a6bb bf14 103e 72a7 0abe
000002c0: e925 193e ab39 e23d 675b f9bc be92 dcbd
000002d0: f54a debd 3b05 a73d 0be9 1fbd 99de a8bd
000002e0: cbc4 2a3e ed6a 42bb af01 a73d 3b42 44bc
000002f0: c5db 2a3c e3f0 4fbe 0113 fbbd f5bd e63d
00000300: 98b4 bb3c aa7b 283d de94 113d 089a bcbd
00000310: 9caa af3d d1fe 76bd dbd5 e4bc a65f 3bbe
00000320: 045c 0abe 0b51 a6bb 4620 2e3d 59b6 5fbc
00000330: c343 2e3e 7fd0 26bd b787 673d 84ab 173c
00000340: 5878 743c 6ce4 a4be b164 0bbe 3aea 303e
00000350: cf74 9fbb 6ee5 18bd 8d40 373e 7da1 9bbe
00000360: eb7f 023e 4f10 1f3d 44e5 27bc 2d17 85be
00000370: 25da 07be ffe0 2ebe e6ca 573c e3dc 6ebd
00000380: c9f3 883e 442a 2b3e 1bba 423d e47c 97bd
00000390: 2412 013e 9a1d 75be e577 1bbe 3927 6e3e
000003a0: cde0 bdbd 7747 0d3d 6ee8 833e ec0f 01be
000003b0: 4f91 f33d 3fd7 8f3d fe4d 24bd d57e 4bbe
000003c0: c234 5abc 76a7 8fbd a24a 86ba 3a62 f2bb
000003d0: abe4 9c3d 0cd0 033e fb9a ef3d f853 f0bc
000003e0: 28da 11be 8c58 59be 4348 59be 4096 d43c
000003f0: b317 0b3d 860e 97bd af0f 003e 25f3 95bc

network_body._body_endoder.seq_layers.0.bias f4 [256]
0.02604691 -0.020650351 -0.040128518 -0.01978568 0.03987798 -0.0008994267 -0.04035365 0.07876417
-0.06410777 -0.008743837 -0.026227195 -0.022059066 -0.064373575 -0.04910975 0.0217351 -0.004121231
0.05591058 0.0061615463 0.011880067 -0.04037526 0.044985496 -0.03532137 0.032032013 -0.040113077
-0.015751444 -0.05212421 0.001058289 -0.03313712 -0.014821523 0.0017845744 0.020426933 -0.0024271505
0.027232831 0.055698626 0.04666521 0.05018047 -0.014309684 0.01171689 -0.015873885 0.08895497
-0.020121094 -0.080232054 -0.13428608 0.027406726 0.02708547 -0.029551145 -0.033438373 -0.016319554
-0.0064649154 0.07490416 -0.04783273 -0.03470204 0.012172352 0.0015774586 -0.08118506 -0.077559695
-0.012244341 0.0360405 0.022952076 0.025297627 -0.018146481 0.060472306 0.0505418 0.036905307
-0.07987464 0.07638057 0.04514661 -0.054491464 -0.015313624 -0.013272216 0.06117644 -0.056030583
-0.042460147 0.052828696 -0.05861098 0.10998625 0.01090928 -0.032203294 0.07245411 -0.026440337
-0.01037618 -0.1271424 0.12337174 0.0628574 0.05549996 -0.020677356 -0.034354888 -0.04734248
-0.11156542 -0.009540762 0.0024143911 -0.035995144 0.01509533 -0.017557755 0.01618774 0.041747995
-0.10049706 -0.07278977 -0.028836597 0.04491932 0.019728605 0.0609655 -0.003449079 -0.045098934
0.008363758 0.024001986 0.010756049 0.051883105 -0.03748971 0.027848674 0.007410788 0.01726848
0.07506886 0.009503899 -0.043074984 0.0653404 0.08687079 0.05122749 0.041807167 0.022333063
-0.007310838 0.002302635 -0.011871796 0.004257412 -0.016788073 -0.0313379 -0.03511569 0.0102693895
-0.09792838 0.012779431 -0.114444345 -0.03056545 0.07989771 0.0025005126 -0.01295314 -0.069460526
-0.03396288 0.04502013 -0.011865553 -0.032162085 -0.012953243 0.035161942 0.06000294 0.021155538
-0.03695149 0.04048635 0.05901603 0.026314458 -0.012396844 0.03331899 0.02003922 0.03652621
-0.022866696 0.005729733 -0.068825595 0.05197373 0.036754254 -0.06645418 -0.028298283 0.009291223
-0.0031782947 0.012962934 0.011034996 -0.022855083 0.017470043 -0.053511586 -0.031785615 0.059909478
0.009148749 0.018054185 0.052387804 0.0012667166 -0.018453734 0.040916916 0.024011103 0.07569221
0.049513604 -0.06520493 -0.026576148 -0.028938988 0.050211284 -0.058900323 0.0799395 -0.040328033
-0.035908222 -0.060142066 -0.021837547 -0.07670364 -0.036543187 -0.05491865 -0.03050099 0.004145566
0.050235122 0.03877124 0.018533109 0.019645512 -0.01635222 -0.021019239 -0.01169465 -0.047685564
0.06517888 -0.04835792 -0.031285834 0.00682666 0.0009482979 -0.003451819 -0.03367909 0.02316854
0.003952881 0.028810013 -0.04044935 -0.05461576 0.01453473 -0.054553427 -0.011688977 0.0029279192
-0.09733183 0.035643503 -0.054831445 0.0021535244 -0.005908322 0.037614524 0.008550096 0.012041253
0.043486036 -0.019090615 -0.059945025 -0.061158787 0.04898736 0.014278925 -0.03427351 -0.006719525
-0.028899476 -0.0592898 -0.025863271 -0.01631799 0.02603986 -0.066626154 0.05865325 0.02303862
-0.0022205447 -0.035177436 -0.07598622 0.075594164 -0.024272956 -0.11186707 -0.0023783625 0.062139764
-0.080285095 0.023924656 -0.056660343 0.008022324 0.041972972 -0.040827863 0.07648736 0.026856419
00000000: 5460 d53c ed2a a9bc cd5d 24bd 9415 a2bc
00000010: 1857 233d 81c7 6bba de49 25bd 1c4f a13d
00000020: ef4a 83bd 4f42 0fbc 6ada d6bc 37b5 b4bc
00000030: 4bd6 83bd 4e27 49bd cf0d b23c 640b 87bb
00000040: 7e02 653d cce6 c93b 9da4 423c 8760 25bd
00000050: b642 383d 24ad 10bd 0034 033d 9c4d 24bd
00000060: 2c09 81bc 3280 55bd 49b6 8a3a caba 07bd
00000070: f9d5 72bc 61e8 e93a 6256 a73c d410 1fbb
00000080: 6317 df3c 3e24 643d 0524 3f3d 098a 4d3d
00000090: 2a73 6abc 33f8 3f3c f309 82bc 062e b63d
000000a0: fed4 a4bc b450 a4bd 4a82 09be 1284 e03c
000000b0: 59e2 dd3c 3e15 f2bc adf6 08bd 96b0 85bc
000000c0: a4d7 d3bb 5a67 993d 41ec 43bd ba23 0ebd
000000d0: 8b6e 473c bac2 ce3a 5a44 a6bd 9ed7 9ebd
000000e0: 7d9c 48bc 349f 133d fe05 bc3c f83c cf3c
000000f0: eea7 94bc cfb1 773d eb04 4f3d 052a 173d
00000100: 5195 a3bd 6b6d 9c3d a7eb 383d 7132 5fbd
00000110: ffe5 7abc b573 59bc 2694 7a3d 5380 65bd
00000120: b1ea 2dbd e762 583d 1112 70bd 7940 e13d
00000130: d6bc 323c 9ae7 03bd d262 943d 6899 d8bc
00000140: da00 2abc 9e31 02be 53aa fc3d 61bb 803d
00000150: ed53 633d 8f63 a9bc b6b7 0cbd 30ea 41bd
00000160: 697c e4bd db50 1cbc c33a 1e3b a56f 13bd
00000170: 6752 773c 48d5 8fbc 279c 843c f2ff 2a3d
00000180: 67d1 cdbd ce12 95bd ba3a ecbc 52fd 373d
00000190: e29d a13c f6b6 793d f209 62bb a9b9 38bd
000001a0: 2508 093c d09f c43c 243a 303c 6183 543d
000001b0: cf8e 19bd e722 e43c 32d6 f23b a176 8d3c
000001c0: b4bd 993d 3eb6 1b3c 656f 30bd 30d1 853d
000001d0: 50e9 b13d ebd3 513d fe3d 2b3d d4f3 b63c
000001e0: c18f efbb cee7 163b ec81 42bc c381 8b3b
000001f0: 2487 89bc 2b5c 00bd 78d5 0fbd f140 283c
00000200: ad8e c8bd d260 513c cc61 eabd 6564 fabc
00000210: 69a1 a33d a4df 233b 6839 54bc 5241 8ebd
00000220: a91c 0bbd 0767 383d bd67 42bc 64bc 03bd
00000230: d739 54bc f805 103d a5c5 753d 614e ad3c
00000240: 725a 17bd 04d5 253d cbba 713d 6b91 d73c
00000250: 221c 4bbc 7e79 083d 4a29 a43c 829c 153d
00000260: f052 bbbc 7cc0 bb3b 6ff4 8cbd 68e2 543d
00000270: a18b 163d 2119 88bd cdd1 e7bc 373a 183c
00000280: f04a 50bb 7c62 543c 21cc 343c 953a bbbc
00000290: 561d 8f3c f72e 5bbd a231 02bd a463 753d
000002a0: a2e4 153c 5fe6 933c 9894 563d f507 a63a
000002b0: 492c 97bc 7f98 273d efb2 c43c 8404 9b3d
000002c0: c7ce 4a3d 2a8a 85bd 39b6 d9bc 7511 edbc
000002d0: 59aa 4d3d 7741 71bd 52b7 a33d 022f 25bd
000002e0: 8014 13bd 8757 76bd a8e4 b2bc cc16 9dbd
000002f0: 4fae 15bd 61f2 60bd 36dd f9bc 87d7 873b
00000300: 58c3 4d3d 97ce 1e3d bfd2 973c a0ef a03c
00000310: 17f5 85bc 8a30 acbc eb9a 3fbc f051 43bd
00000320: 817c 853d f412 46bd 9325 00bd 2db2 df3b
00000330: 3297 783a ea37 62bb 16f3 09bd f3cb bd3c
00000340: 2b87 813b fa02 ec3c 38ae 25bd c6b4 5fbd
00000350: 1423 6e3c 6a73 5fbd 1f83 3fbc 55e2 3f3b
00000360: e955 c7bd ecfe 113d f096 60bd 2522 0d3b
00000370: 999a c1bb b011 1a3d b415 0c3c ad48 453c
00000380: 6a1e 323d ec63 9cbc ea88 75bd a381 7abd
00000390: f8a6 483d 27f2 693c 6162 0cbd 762f dcbb
000003a0: 98be ecbc dcd9 72bd 36df d3bc 4ead 85bc
000003b0: 8b51 d53c 4b73 88bd 643e 703d 7dbb bc3c
000003c0: 8f86 11bb 3716 10bd aa9e 9bbd 1dd1 9a3d
000003d0: 14d8 c6bc 901a e5bd 4dde 1bbb 4486 7e3d
000003e0: 836c a4bd a4fd c33c ad14 68bd 1170 033c
000003f0: daeb 2b3d 1e3b 27bd 68a5 9c3d fe01 dc3c

network_body._body_endoder.seq_layers.2.weight f4 [256, 256]
-0.124771014 0.015404567 -0.055364806 -0.029849807 -0.04014302 0.09325829 -0.13364862 -0.17230242
-0.26683095 0.07467805 0.053458016 -0.011209574 -0.07015441 0.03719559 0.087313466 -0.0004221733
-0.2657146 -0.12506406 0.0878404 -0.105197765 0.022049416 -0.014539698 0.113330275 -0.16508432
0.038174476 0.017284662 -0.16434723 -0.14028989 0.13002925 0.038353525 0.022835113 0.04906729
-0.05802587 0.07418295 0.022818515 -0.04256371 -0.16394117 0.010834715 0.05179441 -0.20527136
-0.08256495 0.046969153 0.0780052 -0.18813862 -0.12495508 0.05725596 -0.006747143 -0.014421493
-0.110092945 -0.08756208 -0.03378776 -0.31143263 -0.04703072 -0.16231315 -0.061365925 -0.17477624
-0.15893395 0.13312379 0.13700272 -0.1489683 -0.0028255642 -0.056015875 -0.13830101 0.10304783
-0.13318546 0.0016090324 -0.010487521 0.06797011 -0.109093115 0.026675211 -0.3128895 0.19861645
-0.16440864 -0.14321792 -0.11150752 0.0073913434 0.11573338 -0.18864624 -0.10083462 -0.13604714
-0.14577542 -0.10650419 -0.10060515 0.05083627 -0.046100635 -0.13479106 -0.2306219 -0.12675293
0.1174726 0.021488655 -0.1594642 0.08163907 -0.023387197 -0.13131356 0.22380075 0.19666372
-0.09135695 -0.09772147 -0.03184446 0.05111713 -0.010451796 0.052168842 -0.091535576 -0.06390887
-0.00862343 0.068550125 -0.25126722 -0.026271889 0.26371258 -0.15199432 0.113207616 -0.06998146
0.032517716 -0.028807865 0.006713649 -0.24838892 -0.27591228 -0.06329422 -0.10892845 0.06174339
-0.021362554 -0.13562822 0.035519868 -0.22485752 0.024789924 0.066826604 0.0017818118 -0.021186378
0.07240373 0.05918199 -0.1461424 0.079272695 0.0027328094 -0.0108291 0.026247812 -0.07248224
0.18121187 -0.11165559 -0.16907108 0.0060495045 -0.33010375 -0.065257594 -0.0546015 0.039845698
-0.12140049 0.026116671 -0.13912305 -0.07222925 -0.20009917 -0.00077044644 0.12181651 -0.22915743
-0.11333239 -0.041332826 -0.051414378 -0.014374544 0.17345865 -0.066995576 -0.07560668 -0.038765896
0.082143985 -0.1060191 0.07824521 -0.10353957 0.028538462 0.008368226 0.009671887 -0.21964043
0.030746419 -0.14619078 0.10487085 -0.032586873 -0.17939997 0.09885156 0.09528665 0.004463692
0.0004941662 0.15385844 0.07029636 -0.081280865 0.0009371955 0.018574258 -0.12844427 -0.14558117
-0.19303249 -0.119777456 0.020578101 -0.11764517 0.10536263 0.15168764 0.049984686 -0.20595121
-0.35220355 0.008826654 0.1539252 0.12943147 -0.0271702 -0.16988607 -0.1694314 0.12295939
-0.34820905 -0.03371634 0.1807427 0.040775195 0.007038225 -0.04713393 -0.068137646 0.117587775
-0.11662634 -0.15078206 -0.05075323 -0.046291735 -0.22845529 0.2032419 -0.20613953 -0.020184644
-0.0426059 -0.03516279 -0.07864865 -0.07314892 0.024705483 -0.08175421 0.016660837 -0.0055641383
0.035901986 -0.043434147 0.03753779 0.1740435 -0.027418409 -0.12569627 0.006984885 0.090302564
-0.009069958 -0.021070557 -0.033376437 0.030332612 -0.0068891617 0.037209623 -0.010219885 0.13825732
-0.057795376 -0.20861992 0.0046683 0.124653675 0.04627771 -0.010431465 -0.28717843 -0.03349757
0.082013726 -0.043666396 -0.0753785 0.03319886 -0.11734347 -0.1859701 -0.10330814 -0.13477358
00000000: f287 ffbd 7063 7c3c 35c6 62bd 9587 f4bc
00000010: 026d 24bd 34fe be3d 2fdb 08be 0c70 30be
00000020: 119e 88be cef0 983d cbf6 5a3d 5ca8 37bc
00000030: 1ead 8fbd 675a 183d 67d1 b23d 2457 ddb9
00000040: be0b 88be cb10 00be abe5 b33d ed71 d7bd
00000050: faa0 b43c ea37 6ebc b419 e83d dd0b 29be
00000060: d75c 1c3d 9098 8d3c a44a 28be 27a8 0fbe
00000070: 6326 053e 9618 1d3d b410 bb3c c8fa 483d
00000080: 89ac 6dbd 3bed 973d e5ed ba3c 4957 2ebd
00000090: 32e0 27be 1784 313c 6026 543d a832 52be
000000a0: d017 a9bd ba62 403d 31c1 9f3d 69a7 40be
000000b0: 73e8 ffbd 3a85 6a3d 2317 ddbb 2048 6cbc
000000c0: 6978 e1bd bf53 b3bd 0965 0abd 1974 9fbe
000000d0: 49a3 40bd 6b35 26be d65a 7bbd 8bf8 32be
000000e0: 95bf 22be 9a51 083e 714a 0c3e 258b 18be
000000f0: 1a2d 39bb e770 65bd c89e 0dbe be0a d33d
00000100: c561 08be 2be6 d23a dad3 2bbc ea33 8b3d
00000110: 366c dfbd f985 da3c 0d33 a0be 1c62 4b3e
00000120: bd5a 28be b8a7 12be 0e5e e4bd 1533 f23b
00000130: 9f05 ed3d 7b2c 41be 6282 cebd f14f 0bbe
00000140: 2746 15be de1e dabd 130a cebd b139 503d
00000150: 05d4 3cbd ab06 0abe 2628 6cbe 85cb 01be
00000160: 7995 f03d fa08 b03c 954a 23be 6232 a73d
00000170: 8296 bfbc 1077 06be 062c 653e 3762 493e
00000180: 5a19 bbbd 3222 c8bd 566f 02bd 3260 513d
00000190: 033e 2bbc ffae 553d 0177 bbbd a7e2 82bd
000001a0: 4949 0dbc 0264 8c3d 19a6 80be 2538 d7bc
000001b0: 5605 873e 66a4 1bbe 65d9 e73d 7152 8fbd
000001c0: 4c31 053d 79fe ebbc 2bfe db3b aa59 7ebe
000001d0: 6044 8dbe 66a0 81bd e115 dfbd a3e6 7c3d
000001e0: 8600 afbc 20e2 0abe 487d 113d 0d41 66be
000001f0: 3d14 cb3c 63dc 883d af8b e93a 0e8f adbc
00000200: 6848 943d d068 723d 5aa6 15be b959 a23d
00000210: ef18 333b 8a6c 31bc a705 d73c 9271 94bd
00000220: 9b8f 393e b0ab e4bd f820 2dbe ec3a c63b
00000230: 5c03 a9be c6a5 85bd d3a5 5fbd 3e35 233d
00000240: d2a0 f8bd a1f2 d53c 4676 0ebe eeec 93bd
00000250: cce6 4cbe c9f7 49ba ef7a f93d 3fa8 6abe
00000260: d01a e8bd 9c4c 29bd e297 52bd 3583 6bbc
00000270: 259f 313e fa34 89bd add7 9abd fdc8 1ebd
00000280: 1b3b a83d 8b20 d9bd 063f a03d 8e0c d4bd
00000290: 7ec9 e93c e21a 093c d676 1e3c 6ce9 60be
000002a0: eadf fb3c 09b3 15be 87c6 d63d d079 05bd
000002b0: a0b4 37be b072 ca3d a625 c33d 2a44 923b
000002c0: ef8a 013a 118d 1d3e 8af7 8f3d 9576 a6bd
000002d0: 20ae 753a 0b29 983c e586 03be 3b13 15be
000002e0: 4faa 45be e24d f5bd 6893 a83c f3ef f0bd
000002f0: 5dc8 d73d 0154 1b3e bebc 4c3d e0e4 52be
00000300: 0654 b4be ac9d 103c 919e 1d3e af89 043e
00000310: 0a94 debc 9df6 2dbe 6d7f 2dbe 22d2 fb3d
00000320: 7548 b2be 251a 0abd 9d14 393e e403 273d
00000330: e9a0 e63b 820f 41bd c08b 8bbd dcd1 f03d
00000340: cad9 eebd 9d66 1abe 9ee2 4fbd 679c 3dbd
00000350: 2ff0 69be a51e 503e 3e16 53be 445a a5bc
00000360: 8683 2ebd dc06 10bd 8b12 a1bd 1acf 95bd
00000370: 2763 ca3c c06e a7bd 4f7c 883c 6053 b6bb
00000380: f60d 133d 01e8 31bd 3ac1 193d 7638 323e
00000390: 929c e0bc 86b6 00be 76e1 e43b 8df0 b83d
000003a0: 299a 14bc 299c acbc bbb5 08bd 197c f83c
000003b0: 7abe e1bb 1e69 183d 4e71 27bc 5493 0d3e
000003c0: d8ba 6cbd 76a0 55be 8af8 983b 6d4a ff3d
000003d0: b28d 3d3d bce8 2abc 0d09 93be bf34 09bd
000003e0: d0f6 a73d 89db 32bd 0b60 9abd 87fb 073d
000003f0: c651 f0bd f26e 3ebe 3893 d3bd 1602 0abe

network_body._body_endoder.seq_layers.2.bias f4 [256]
-0.0626326 0.01909865 -0.013638687 -0.09251553 0.07405974 -0.0018174292 -0.022627162 -0.03755403
0.02722867 -0.0051141777 -0.09326734 0.053288516 0.00398489 0.0021063872 -0.015883664 -0.016463963
0.02409746 0.06301765 -0.09060986 0.018815372 -0.0104866335 -0.06454011 -0.00801308 -0.07318967
-0.041803982 0.03492773 0.026725037 0.061245795 -0.012254316 0.02000088 0.06703591 0.03625216
0.0039559086 -0.061808307 -0.034719057 0.00041235203 -0.012996455 0.0067871134 -0.08681406 0.01117195
0.02628562 0.015658166 0.02114475 0.04224627 -0.06476364 -0.06656223 -0.05077037 -0.0023514775
-0.02161985 -0.066105954 0.039355166 -0.018572323 -0.003986754 -0.1294 0.011584093 0.03859182
0.0037640724 0.01945217 0.009386439 0.008752582 0.065498084 0.08223249 -0.09687088 -0.03238929
-0.18756847 0.08550566 0.012354166 -0.016415084 0.0061343648 -0.04156744 -0.040161107 -0.011976212
-0.007853429 -0.01254392 0.0038345903 0.059568565 0.041805528 0.033583988 0.038170297 -0.06015353
0.004345741 0.011666723 -0.019924982 -0.03153315 -0.06868041 -0.022332 -0.036458094 0.0134869935
-0.014323893 -0.14594403 0.018199302 -0.047215108 -0.031913456 0.013377564 -0.04396921 -0.009287659
0.041945796 -0.01395881 -0.0011939132 0.03295383 -0.13598435 -0.0806946 -0.060805738 0.0041019167
-0.04005708 0.00785298 -0.0446155 -0.05120192 -0.09139746 0.083653785 0.039054062 -0.0026623607
-0.029157 0.01279741 0.0059450055 -0.0068043647 0.062496316 -0.085224144 -0.075612254 -0.054086186
-0.11204934 0.034264997 -0.1333319 0.019080944 -0.062228728 0.06898656 -0.0112177525 -0.03506809
0.106688954 -0.06860526 -0.1014115 -0.03897622 0.007868889 0.02160478 -0.03696317 -0.018240271
0.04133117 -0.0715522 -0.0076554324 -0.05043894 0.06677471 -0.04528126 -0.014866409 0.03255585
0.00987827 -0.016377332 -0.05007259 0.012471761 -0.043925006 0.079066664 -0.050458472 -0.0427403
-0.083062455 -0.02686705 -0.072689556 -0.015435366 -0.117842905 -0.09987783 0.048948962 0.0032687685
0.080249466 0.04530017 -0.04194281 -0.057682186 0.087134 -0.05494938 -0.060241073 0.0073642777
-0.099095464 0.061143823 0.012826705 -0.093010224 -0.014389064 -0.12456545 -0.057575837 0.02102909
0.041637532 -0.022717705 -0.038003985 -0.028850364 -0.040655665 0.024624217 -0.0058868974 -0.09601206
-0.054566637 -0.061499264 -0.011444499 -0.02575431 -0.066294186 -0.014113616 -0.09875616 -0.04278058
0.055494424 -0.011435856 0.022580419 -0.03715159 -0.015741354 0.014693873 -0.04084747 0.017081782
-0.018359507 -0.013642674 -0.0098950565 -0.07331727 -0.085671715 -0.08454321 -0.052429963 -0.013858872
-0.03841427 -0.07419786 -0.081895135 -0.06836908 -0.080558375 0.03647693 0.05487333 0.0042472724
0.025846107 0.0041074664 0.012371723 -0.02268891 -0.023798611 0.080291145 0.008584318 0.053637434
-0.08305992 -0.026190357 -0.028708395 -0.023718003 0.029008001 0.0886162 0.08773908 -0.07402651
-0.030500894 -0.08468681 0.015904363 -0.046457406 0.079476885 -0.07487485 -0.03041306 0.060496483
0.0767313 -0.026436528 -0.08508531 -0.03347236 0.010656893 -0.049007945 -0.022742508 -0.10987159
-0.028628068 0.009115772 0.031028846 0.05857732 -0.0722696 -0.013115369 -0.073399745 0.017579654
00000000: 8545 80bd c674 9c3c cd74 5fbc c878 bdbd
00000010: a2ac 973d ce36 eeba 995c b9bc 41d2 19bd
00000020: a90e df3c d594 a7bb f202 bfbd 0f45 5a3d
00000030: ae93 823b 500b 0a3b 751e 82bc 6fdf 86bc
00000040: 0968 c53c 660f 813d aa91 b9bd b222 9a3c
00000050: 21d0 2bbc 9b2d 84bd 4b49 03bc 77e4 95bd
00000060: a73a 2bbd 6110 0f3d 77ee da3c dfdc 7a3d
00000070: 54c6 48bc e3d8 a33c 204a 893d 257d 143d
00000080: 91a0 813b b52a 7dbd 9235 0ebd f430 d839
00000090: 15ef 54bc 6f66 de3b 92cb b1bd 8e0a 373c
000000a0: f154 d73c 8e45 803c c137 ad3c 6d0a 2d3d
000000b0: cda2 84bd c751 88bd 97f4 4fbd 3f1b 1abb
000000c0: 1d1c b1bc 8f62 87bd e232 213d fc24 98bc
000000d0: 51a3 82bb 6f81 04be 35cb 3d3c 7512 1e3d
000000e0: a8ae 763b 285a 9f3c 94c9 193c fd66 0f3c
000000f0: dc23 863d 8269 a83d 3d64 c6bd a2aa 04bd
00000100: f311 40be 971d af3d 2169 4a3c ed78 86bc
00000110: c802 c93b 9f42 2abd f97f 24bd e037 44bc
00000120: abab 00bc 0485 4dbc c04d 7b3b 2bfe 733d
00000130: 463c 2b3d 5d8f 093d 7558 1c3d 8c63 76bd
00000140: b866 8e3b c825 3f3c b739 a3bc e728 01bd
00000150: 51a8 8cbd 99f1 b6bc 1555 15bd 8df8 5c3c
00000160: c3ae 6abc 5a72 15be b416 953c a164 41bd
00000170: afb7 02bd 922d 5b3c 0f19 34bd 442b 18bc
00000180: 5bcf 2b3d 7eb3 64bc 147d 9cba 98fa 063d
00000190: 7b3f 0bbe 3643 a5bd 700f 79bd 5f69 863b
000001a0: e512 24bd c9a9 003c bebe 36bd 1bb9 51bd
000001b0: 972e bbbd ad52 ab3d 27f7 1f3d 007b 2ebb
000001c0: a9da eebc 3aac 513c 52ce c23b 26f7 debb
000001d0: 23fc 7f3d ff89 aebd 99da 9abd 7a89 5dbd
000001e0: 207a e5bd 7459 0c3d 2888 08be a44f 9c3c
000001f0: 8de3 7ebd d348 8d3d aaca 37bc 8fa3 0fbd
00000200: bd7f da3d ea80 8cbd d5b0 cfbd 87a5 1fbd
00000210: 83ec 003c 82fc b03c b166 17bd 9f6c 95bc
00000220: df4a 293d f689 92bd 6cda fabb 1099 4ebd
00000230: 2ec1 883d d878 39bd 3d92 73bc 4859 053d
00000240: 78d8 213c c129 86bc eb18 4dbd 5b56 4c3c
00000250: b5ea 33bd b4ed a13d 8bad 4ebd 7410 2fbd
00000260: a61c aabd 4a18 dcbc 43de 94bd 9ee4 7cbc
00000270: 9f57 f1bd bf8c ccbd b57e 483d d638 563b
00000280: d559 a43d ac8c 393d 39cc 2bbd 2844 6cbd
00000290: 5073 b23d 9a12 61bd 58bf 76bd 0a50 f13b
000002a0: 90f2 cabd f271 7a3d 1a27 523c 257c bebd
000002b0: 1cc0 6bbc 2c1c ffbd a4d4 6bbd 3345 ac3c
000002c0: 1e8c 2a3d 7b1a babc 11aa 1bbd 9957 ecbc
000002d0: 8e86 26bd bab8 c93c e0e6 c0bb f9a1 c4bd
000002e0: 4481 5fbd a7e6 7bbd b581 3bbc b4fa d2bc
000002f0: 3fc5 87bd cc3c 67bc ab40 cabd b13a 2fbd
00000300: 1f4e 633d 755d 3bbc 92fa b83c 442c 18bd
00000310: 03f4 80bc 92be 703c ad4f 27bd 18ef 8b3c
00000320: ad66 96bc 8685 5fbc e01e 22bc 5d27 96bd
00000330: a774 afbd fe24 adbd cdc0 56bd 5210 63bc
00000340: 4858 1dbd 0cf5 97bd a3b8 a7bd 1705 8cbd
00000350: cafb a4bd d568 153d dbc2 603d b42c 8b3b
00000360: 37bb d33c ed97 863b c4b2 4a3c 18de b9bc
00000370: 4ef5 c2bc af6f a43d 3da5 0c3c edb2 5b3d
00000380: 521b aabd 298d d6bc de2d ebbc 424c c2bc
00000390: 30a2 ed3c 697c b53d 8cb0 b33d 369b 97bd
000003a0: 03dd f9bc 4770 adbd de49 823c 1f4a 3ebd
000003b0: c7c4 a23d fc57 99bd cf24 f9bc 29cb 773d
000003c0: 4d25 9d3d 6b91 d8bc 3541 aebd 501a 09bd
000003d0: 409a 2e3c 8ebc 48bd 7f4e babc 5b04 e1bd
000003e0: 6985 eabc 525a 153c 3530 fe3c c6ee 6f3d
000003f0: 1602 94bd d8e1 56bc 9b52 96bd 3503 903c

action_model._discrete_distribution.branches.0.weight f4 [9, 256]
0.0783295 -0.012925126 0.019269606 -0.05547809 0.18280713 0.0037969395 -0.2107514 0.04662928
-0.022589436 -0.04502772 -0.17873587 0.014607178 -0.17179893 -0.05239514 0.007270414 0.001414823
-0.058244787 0.041781317 -0.10592565 0.059577364 -0.11280844 -0.043376625 -0.06613113 -0.052520953
-0.14558397 -0.04850787 0.07963811 -0.14690025 0.027601862 0.011686865 -0.14180396 -0.10424142
-0.047394414 0.029469354 -0.03679081 -0.117707096 0.12524144 0.060753167 -0.008310674 0.1192445
-0.12069836 -0.039758965 0.02742166 -0.025357613 -0.10967522 0.1063945 -0.07540525 -0.023878649
-0.10600327 -0.12488874 0.06397979 -0.10462711 0.04399723 -0.12667966 0.13611999 -0.08229344
0.08494824 0.20704082 -0.14179729 -0.0844031 0.073741466 0.0012157476 -0.13305777 0.00071381417
0.008523328 0.049899966 -0.015929285 0.0005004679 -0.014095574 -0.19825618 0.043239616 -0.1014724
-0.02752237 0.073269084 -0.008764505 0.01665182 -0.036774155 -0.032017305 0.0022936703 -0.23888785
0.052448835 0.040823508 -0.017084548 0.10176741 -0.016538443 -0.05083074 0.045379337 0.22254182
-0.0053039775 -0.08386498 0.14869918 0.051023725 -0.04050444 0.03593293 -0.05558285 0.08182065
0.14466834 -0.06364988 0.057113003 0.0396156 -0.10041329 -0.11396154 -0.07644053 -0.053004738
0.12751053 0.06943533 -0.09984775 -0.15041177 -0.047816887 -0.016460441 -0.0130623905 0.17454904
-0.06351827 -0.036797814 -0.087625116 -0.010401089 0.00042102512 0.032580156 -0.16237618 -0.24963959
-0.15398967 -0.06722643 -0.10894495 -0.102014236 -0.06285044 0.081381924 0.1045501 -0.1136758
0.040407218 -0.04414038 -0.1887059 0.017487295 -0.040002465 0.08881104 -0.13007371 -0.030844472
0.022712952 -0.045055218 -0.054748967 -0.10148157 -0.06200237 -0.08210173 -0.18745945 0.20642401
-0.034738235 -0.033397313 0.026309267 0.08590599 -0.053050738 0.13250636 -0.030332107 -0.17041421
-0.15615691 -0.04991758 0.040793467 -0.020586621 0.0042909 -0.060411695 0.027533334 0.05313184
-0.2067304 0.07530886 -0.04117532 -0.104412 0.0370169 -0.19160943 -0.086852774 0.059562284
-0.08314498 0.034724172 -0.04757501 0.11471231 0.03475112 -0.09699261 -0.21516244 -0.06533051
-0.0045560575 0.06638415 0.04486674 -0.049797233 -0.016232459 -0.037159156 0.029963953 -0.020228272
-0.06558606 -0.037470344 0.072978355 -0.049071554 -0.00468313 -0.0076344227 -0.024620727 -0.035635907
0.09529349 -0.071938686 -0.034460064 -0.004259109 0.07836688 -0.030133702 -0.087362245 0.057305343
0.08253404 -0.10209864 -0.028326867 0.032002926 0.035433467 -0.12166457 -0.08841225 0.040525302
0.19033667 0.071125 -0.029006748 -0.00500653 -0.07944391 -0.0924432 0.18852797 -0.008693076
0.029094797 -0.02369105 0.06437745 -0.04933868 -0.044757538 0.079936445 -0.011300893 0.10857797
0.036460523 -0.020423224 -0.105808355 -0.0840678 -0.0645327 0.061398037 -0.24698098 -0.022721099
0.082869634 -0.071205676 -0.023351321 -0.03525595 0.2553789 0.06347849 0.006368367 0.10505145
0.009425993 -0.05037769 -0.048869323 -0.01670627 -0.00037029746 0.02754437 -0.070398964 -0.08433885
0.08983587 0.06379111 0.080175355 0.2544851 0.15286797 -0.06378034 0.09127737 -0.06631096
00000000: 386b a03d e8c3 53bc 4bdb 9d3c fe3c 63bd
00000010: cb31 3b3e 13d6 783b 37cf 57be 58fe 3e3d
00000020: 7b0d b9bc fd6e 38bd 8906 37be f252 6f3c
00000030: 0fec 2fbe 499c 56bd a73c ee3b 9571 b93a
00000040: 1692 6ebd e322 2b3d 8cef d8bd 6507 743d
00000050: 1d08 e7bd b0ab 31bd c26f 87bd 3620 57bd
00000060: f713 15be 30b0 46bd 4e19 a33d 056d 16be
00000070: 4d1d e23c 447a 3f3c 0f35 11be 877c d5bd
00000080: a520 42bd b769 f13c f6b1 16bd 6b10 f1bd
00000090: 4b3f 003e 50d8 783d 7e29 08bc 7636 f43d
000000a0: b430 f7bd 4cda 22bd 64a3 e03c c5ba cfbc
000000b0: 679d e0bd 5ce5 d93d 116e 9abd 289d c3bc
000000c0: 3e18 d9bd abc5 ffbd d607 833d bd46 d6bd
000000d0: 7036 343d 50b8 01be 0a63 0b3e 7789 a8bd
000000e0: 58f9 ad3d 8202 543e 4f33 11be 88db acbd
000000f0: c405 973d b859 9f3a 4c40 08be 421f 3b3a
00000100: 6ea5 0b3c e863 4c3d 227e 82bc d531 033a
00000110: 1ff1 66bc ab03 4bbe 061c 313d c3d0 cfbd
00000120: 9876 e1bc 1a0e 963d 0099 0fbc 6669 883c
00000130: 7fa0 16bd 9424 03bd 6751 163b 049f 74be
00000140: 97d4 563d 8d36 273d e5f4 8bbc 6f6b d03d
00000150: a17b 87bc e533 50bd afdf 393d 01e2 633e
00000160: fdcc adbb 67c1 abbd 9944 183e 41fe 503d
00000170: fce7 25bd 682e 133d d8aa 63bd 9691 a73d
00000180: f023 143e de5a 82bd 53ef 693d f843 223d
00000190: 7ca5 cdbd ab64 e9bd da8c 9cbd 7f1b 59bd
000001a0: 1f92 023e 1c34 8e3d fa7c ccbd 8b05 1abe
000001b0: a4db 43bd 0cd8 86bc a303 56bc fcbc 323e
000001c0: de15 82bd 4eb9 16bd cc74 b3bd 5469 2abc
000001d0: 09bd dc39 c572 053d f145 26be 85a1 7fbe
000001e0: 78af 1dbe 03ae 89bd 881e dfbd d7ec d0bd
000001f0: bbb7 80bd 91ab a63d 5d1e d63d dcce e8bd
00000200: 0a82 253d 8bcc 34bd 1f3c 41be 8441 8f3c
00000210: a0d9 23bd 90e2 b53d 0b32 05be 8cad fcbc
00000220: 8310 ba3c d28b 38bd 7440 60bd 92d5 cfbd
00000230: 32f6 7dbd f424 a8bd 5ff5 3fbe d160 533e
00000240: ae49 0ebd 9fcb 08bd 8886 d73c 7bef af3d
00000250: bb4b 59bd bfaf 073e 0a7b f8bc 1081 2ebe
00000260: 99e7 1fbe 6076 4cbd 0d17 273d 46a5 a8bc
00000270: ae9a 8c3b 4172 77bd 968d e13c c6a0 593d
00000280: 22b1 53be 883b 9a3d 74a7 28bd f5d5 d5bd
00000290: 089f 173d 4335 44be dedf b1bd 95f7 733d
000002a0: ea47 aabd ef3a 0e3d 04de 42bd 4aee ea3d
000002b0: 3157 0e3d 10a4 c6bd 8b53 5cbe 01cc 85bd
000002c0: fb4a 95bb 6af4 873d 30c6 373d 2ff8 4bbd
000002d0: eff9 84bc 3334 18bd f776 f53c c3b5 a5bc
000002e0: fc51 86bd 817a 19bd ad75 953d 41ff 48bd
000002f0: f174 99bb 2e2a fabb 68b1 c9bc f5f6 11bd
00000300: 3c29 c33d 9754 93bd ff25 0dbd ff8f 8bbb
00000310: d17e a03d f4da f6bc faea b2bd 02b9 6a3d
00000320: 9b07 a93d 1719 d1bd bf0d e8bc 8015 033d
00000330: af22 113d 462b f9bd 7b11 b5bd dcfd 253d
00000340: 9ee7 423e fca9 913d 8f9f edbc d10d a4bb
00000350: 7db3 a2bd dc52 bdbd 7a0d 413e 676d 0ebc
00000360: 3658 ee3c bc13 c2bc 53d8 833d 5b17 4abd
00000370: ae53 37bd b8b5 a33d 6127 39bc 205e de3d
00000380: a157 153d 9b4e a7bc 0db2 d8bd bd2b acbd
00000390: b829 84bd 827c 7b3d 95e8 7cbe 9921 babc
000003a0: 8eb7 a93d 48d4 91bd 454b bfbc 8b68 10bd
000003b0: 06c1 823e 0301 823d bcad d03b 3725 d73d
000003c0: 7b6f 1a3c d658 4ebd 332b 48bd 96db 88bc
000003d0: 7c24 c2b9 bba4 e13c 552d 90bd d9b9 acbd
000003e0: defb b73d eaa4 823d fa32 a43d df4b 823e
000003f0: 6c89 1c3e 449f 82bd a1ef ba3d 0ace 87bd

action_model._discrete_distribution.branches.0.bias f4 [9]
0.016268002 0.052415065 -0.015196128 -0.23006062 -0.009431985 0.013701831 0.027269771 0.036743224
-0.04811151
00000000: 7944 853c 2eb1 563d 2ef9 78bc 0395 6bbe
00000010: 9d88 1abc a57d 603c db64 df3c 1080 163d
00000020: 9310 45bd
